autosurv/saved_models/sup_checkpoint_overall.pt (torch, 5934 bytes, 11 tensors)

c_bn_input.weight f4 [16]
00000000: 3185 023f 6087 883f 038b 6a3f 1df5 823f
00000010: b213 863f d7e8 a7bd 0944 1b3f 694e 683f
00000020: 94b7 5c3f 17b5 ce3e 0bef 1d3f b74b 2c3f
00000030: 2d71 813e c966 f23e af9f b4bc c9c9 363f
0.50984484 1.0666313 0.91618365 1.0231053 1.047476 -0.081987076 0.6065069 0.90744644
0.8621762 0.40372536 0.61692876 0.6730303 0.2528166 0.47344044 -0.0220488 0.7140165

c_bn_input.bias f4 [16]
00000000: 1c12 943e 53c5 8cbf 4e06 c2bd e17a 313f
00000010: c9ef 2dbf 26a8 61bf 576a 2cbf 2d80 3dbf
00000020: a9a3 473f 28c0 9d3e e271 813f 85e6 5ebf
00000030: aa83 3ebf 3014 463f c893 493f e364 cabe
0.28920066 -1.0997719 -0.09473859 0.69328123 -0.6794401 -0.881472 -0.6734976 -0.74023706
0.779841 0.30810666 1.0112879 -0.87070495 -0.74419653 0.77374554 0.7874112 -0.39530095

c_bn_input.running_mean f4 [16]
00000000: 2b06 243d 8d2c 973a c238 3d3b 7346 07ba
00000010: e5a8 903c ae5c 6d3d 2014 213d d93a a9bc
00000020: 8562 673d 3664 5b3c f9e6 83bd 202e 3dbb
00000030: 5cd4 bdbb b2c2 cc3d ed74 7c3d dd04 c03c
0.040044945 0.0011533663 0.0028872942 -0.0005160339 0.01765866 0.057949714 0.039325833 -0.020657944
0.05649044 0.013390591 -0.06440539 -0.0028866604 -0.0057931375 0.09998073 0.061634947 0.023439819

c_bn_input.running_var f4 [16]
00000000: 3a16 8f3f a73d c13f 247c f53f 8fca db3f
00000010: f113 fe3f 3f7e 773f 8d9a 0c40 d031 0940
00000020: f8ae ae3f 1c26 a83f 8abe 853f dc4e ce3f
00000030: 6406 e13f cf25 9f3f 3f6b 683f 2fc5 343f
1.1178658 1.509694 1.917851 1.7171191 1.9849836 0.9667701 2.196933 2.1436653
1.3647146 1.313663 1.0448773 1.6117816 1.7580075 1.2433413 0.90788645 0.7061338

c_fc1.weight f4 [8, 20]
00000000: 1fca 9bbe fc0e 64be a885 1fbc cd78 d43e
00000010: 15ce 99be d9db abbe c90b b23d 22e5 bebe
00000020: 1cd5 e73e 87ee 9ebe 2168 063f f417 d2be
00000030: 8b5d 56be d8ae aa3e ee24 78bc 593e 08be
00000040: 1cca 793e edce 693f 1638 1b3f 64e5 c93e
00000050: 7502 babe 2480 5d3e 7a21 703e 5026 cebd
00000060: 504b 8b3e 38cf c93e 4cc7 773e ae67 b63e
00000070: b5d0 55be 6cf8 e0bd dd7d c1be 3804 a73e
00000080: fbdf 9e3e 6c4f b9be 7eff 9dbc 4a44 ae3e
00000090: 1c63 873d 2167 02c0 a6d6 b8bf 2264 efbd
000000a0: 7a9b f5ba 92bf a03b ba1e b43c 9c7d f2bb
000000b0: 4ea2 ca3c 1a78 babb 6f25 983b 9272 57bb
000000c0: a710 c53c 15f3 893d 5295 bd3c f209 7ebd
000000d0: cf59 5dbc 80d5 db3c 2802 02bd 8de1 80bd
000000e0: c152 a33e 7d01 15bc dfa4 aaba d5e0 48bc
000000f0: 38b7 943d 4173 4fbf d3bf 06bf c108 183f
00000100: 4aa5 2fbf 8117 b7be e1f5 84be 63c0 06bf
00000110: 7f6e f63e d39c f03c 771b ef3e 9a32 d2be
00000120: 6f49 d6bd 1bee f2bc c243 ae3d fafa 95be
00000130: 72db 77bd 82c0 bb3f e41b 793f 8eb9 143d
00000140: 1d05 383e e464 de3e c402 763e c656 9d3e
00000150: 8292 c83e 4741 6d3e b08f fe3d f253 bb3e
00000160: 24ef cdbe abbb 94be 2bc6 b2be fae3 393e
00000170: 3ce2 0bbd ee98 8fbe 269f 1abe 8d58 693e
00000180: b5dc babe 3684 e4be a0c5 b6be 0e0d 96be
00000190: beaa 473e fe94 9e3e 8100 eebd acd5 e53c
000001a0: fb54 a03e df1b 583e 9577 ab3e db44 f83c
000001b0: 6d7c 62be 144a 8cbe cba5 6abe 910c dc3e
000001c0: 3b4a e9bd ef77 bdbe 753d 0dbf 51cc bcbc
000001d0: 5553 c7be fab5 91be c9d5 bebe f2e7 e4be
000001e0: 04a0 96bd af3a 64bd 11f1 63be 9430 673e
000001f0: a6b1 0e3e ae3a 40bd 9efd e9bc 492f 4c3c
00000200: 02a1 863b f99c c13c ad0f b23c 8d61 853d
00000210: a82f 0f3c 62ac 0fbc 0a39 3c3c 6bba a7bb
00000220: ec09 a03e 210e 313c 3f06 953c 4900 3ebc
00000230: 4074 2a3b f390 eb3b 7278 5bbb 9828 8f3c
00000240: fae5 203c 9f2e d8bc 3f7c 90bc 9a65 6d3c
00000250: b859 b43c a0e6 3a3c 6b21 e7ba 05f5 9e3c
00000260: 33ca 0ebc af3a 23bb 9b4d 7dbc 6051 36bc
00000270: 0d2c 8abe 9362 91bb 045a 2a3b 2ac7 faba
-0.30427644 -0.22271341 -0.009736456 0.41498414 -0.3004004 -0.33566168 0.08693654 -0.3728419
0.45279777 -0.31041357 0.5250264 -0.410339 -0.20934121 0.3333652 -0.0151455235 -0.13305034
0.24393505 0.9133137 0.60632455 0.39432824 -0.3633 0.21630913 0.2345027 -0.10065901
0.27205896 0.39415908 0.2419712 0.35625976 -0.20880397 -0.10984883 -0.3779134 0.32620406
0.3103026 -0.36193407 -0.019286867 0.34036475 0.066107005 -2.0375445 -1.4440506 -0.11689021
-0.0018738352 0.0049056495 0.021987308 -0.0074002277 0.024735596 -0.0056905868 0.0046431343 -0.0032874686
0.024055792 0.06735817 0.02314249 -0.062021203 -0.013510182 0.026835203 -0.031740338 -0.062930204
0.31899074 -0.009094593 -0.0013019106 -0.012260635 0.07261509 -0.8103524 -0.5263645 0.5938836
-0.68611586 -0.3576012 -0.2596884 -0.5263731 0.48131177 0.029371655 0.46700642 -0.4105423
-0.10463225 -0.029654553 0.085090175 -0.29293042 -0.060512014 1.4668124 0.9730818 0.03630977
0.179707 0.43436348 0.24024493 0.30730265 0.39174277 0.23169433 0.1242975 0.36587483
-0.40221512 -0.2904943 -0.34916815 0.18153372 -0.0341513 -0.28046364 -0.15099773 0.22787686
-0.3649651 -0.4463212 -0.3569765 -0.29306835 0.19498727 0.30973047 -0.1162119 0.028055988
0.31314835 0.21104382 0.3348967 0.03030627 -0.22117777 -0.27400267 -0.22914807 0.42978337
-0.113911115 -0.37005565 -0.551719 -0.023046644 -0.38930765 -0.2845915 -0.3727248 -0.4470821
-0.07354739 -0.055720028 -0.22259928 0.22577125 0.13934955 -0.04693096 -0.028563317 0.012462446
0.004108549 0.02363442 0.02173599 0.06512747 0.0087393895 -0.008769127 0.011488209 -0.0051186583
0.3125757 0.010806591 0.018191455 -0.011596748 0.0026009232 0.00718891 -0.003348854 0.017475411
0.009820456 -0.026389418 -0.01763737 0.014489556 0.022015437 0.011407524 -0.0017633861 0.019403944
-0.0087152 -0.0024906804 -0.015460397 -0.0111278 -0.26986733 -0.0044368 0.0025993595 -0.0019132842

c_fc1.bias f4 [8]
00000000: f540 1a3f 7958 30bf c563 133d 7fd5 ce3e
00000010: 8bf8 69be f258 c4be df1a 823c ceaf 71bc
0.60255367 -0.68885 0.03598382 0.4039726 -0.22848718 -0.3834911 0.015881954 -0.014751388

c_bn2.weight f4 [8]
00000000: 2fa3 b23e a212 8c3f 53af 1dbe 84bc 663f
00000010: 5c95 2ebe 8d59 b93d 65b7 153e 9309 d13e
0.34890124 1.0943186 -0.15398912 0.901314 -0.17049164 0.090502836 0.1462074 0.40827617

c_bn2.bias f4 [8]
00000000: 63a1 abba 224a 123b 2e31 3e38 f122 69ba
00000010: 5130 3639 5a8a 69ba 75c3 d8ba e419 9f3a
-0.0013094362 0.0022322019 4.5345332e-05 -0.00088934513 0.00017374872 -0.00089088606 -0.0016537743 0.0012138453

c_bn2.running_mean f4 [8]
00000000: ac85 7b3f 0801 80be 084b 7f3f 1702 5abc
00000010: 28cd 7fbf 6549 7cbf 015a 7d3f e60e 7dbf
0.9825084 -0.25000787 0.99723864 -0.013306162 -0.9992242 -0.9854949 0.9896546 -0.9885086

c_bn2.running_var f4 [8]
00000000: dd11 dc3e eeaa 383f 9351 dc3e 302d 493f
00000010: ffd2 da3e c8ca dd3e 4d1a de3e 9ac0 de3e
0.4298238 0.7213582 0.43030986 0.78584576 0.42739102 0.43318772 0.4337944 0.43506318

c_fc2.weight f4 [1, 8]
00000000: 2da0 303e ae0a d93e a370 c1bd be70 62be
00000010: 09d1 ac3d f27b 2b3d 1a6b 393d e68b f83b
0.17248602 0.4239096 -0.09445312 -0.2211332 0.08438308 0.04186625 0.045268156 0.0075850366
