autosurv/saved_models/sup_checkpoint_overall.pt (torch, 7342 bytes, 11 tensors)

c_bn_input.weight f4 [8]
0.8529168 0.77825934 0.56447744 0.85928226 0.79035634 0.56234515 1.134813 0.89372593
00000000: c158 5a3f 013c 473f 9881 103f ecf9 5b3f
00000010: cb54 4a3f daf5 0f3f 8d41 913f 39cb 643f

c_bn_input.bias f4 [8]
-0.58095527 -0.31594235 -0.41356304 -0.47569236 0.6666928 0.0024559638 -0.30760083 0.68318266
00000000: 7cb9 14bf 32c3 a1be 89be d3be f38d f3be
00000010: 61ac 2a3f 3cf4 203b db7d 9dbe 0fe5 2e3f

c_bn_input.running_mean f4 [8]
-0.04396553 -0.11691871 -0.13713837 -0.16124454 0.11098969 0.082079686 -0.13767798 0.024458164
00000000: 3315 34bd 1473 efbd 006e 0cbe 4a1d 25be
00000010: 904e e33d 6519 a83d 75fb 0cbe 7d5c c83c

c_bn_input.running_var f4 [8]
0.8200444 1.6668422 2.6996753 1.891673 2.3654108 1.1439406 2.0520034 1.467335
00000000: 6eee 513f 165b d53f 7bc7 2c40 5722 f23f
00000010: e462 1740 a56c 923f 0654 0340 a2d1 bb3f

c_fc1.weight f4 [32, 12]
-0.15174672 0.051268112 0.42397445 0.2968258 -0.031744644 0.1582496 -0.076204285 -0.2235123
-0.060185466 -0.6955503 -0.27140507 -0.535846 -0.13641925 -0.10919328 -0.18218309 0.19945969
0.2692721 -0.32334924 -0.11705046 -0.100634985 -0.22914796 -0.37832543 -0.15603377 -0.18168958
0.19927387 0.26844656 0.25634363 0.009174123 0.09014131 0.196359 0.17986743 0.27310124
-0.2887467 -0.22797683 -0.17786233 -0.018724462 0.20165251 -0.049351525 0.23064442 0.1973247
0.15342958 0.32610255 -0.25450316 -0.09068116 -0.23136498 -0.26133457 -0.14595738 -0.30132252
-0.12593484 -0.3725916 -0.18701711 -0.13389796 0.18161218 -0.26670018 0.27324095 0.38670808
-0.2290027 0.18188718 0.29829654 -0.09777754 -0.028837137 -0.018306434 -0.04983188 0.04735942
-0.036928955 0.00883242 -0.029882962 0.002020954 -0.15484953 0.038864467 -0.013707353 -0.025834145
0.07505843 0.104237504 -0.108894 -0.0053454526 -0.101721354 0.24050322 0.11957998 0.023321595
-0.23697507 -0.07931546 -0.120215334 -0.121592626 0.009429937 0.02208604 -0.12989864 -0.026810715
-0.072843134 0.13582368 -0.1497933 0.02543116 0.13541111 0.13868414 -0.35588026 -0.23336169
-0.34448972 0.17205255 -0.12422326 -0.36102077 -0.037916005 -0.12482661 -0.288492 0.3051715
-0.030591672 0.81143963 0.6909869 0.23392718 -0.024946315 -0.052485626 0.054427434 0.095959656
-0.10197983 0.09593775 -0.025816232 -0.06113095 -0.29434556 -0.08808549 0.0020008732 -0.045725293
-0.24572542 -0.24679874 -0.14720164 -0.07215808 0.28659865 0.0776221 -0.4072451 0.14695299
0.13814498 0.15530357 -0.222165 -0.19822337 -0.33178905 -0.21693581 -0.14436363 0.117011204
0.2094409 -0.3253067 -0.111197434 0.075570494 -0.07190119 0.26170826 0.42440888 0.031488255
0.05923725 -0.12461816 -0.103890724 0.06832597 0.112152755 -0.10207737 0.12489445 0.07108002
0.27991262 0.13042402 0.02505408 0.14307547 0.06853799 0.27088195 0.21929969 0.07902117
-0.23207197 0.19607377 0.022963032 0.17958368 -0.19187586 -0.18406646 -0.16523007 -0.19658898
0.0002532953 0.021286217 -0.018385313 -0.00838876 0.03242068 0.022610625 0.0048216693 -0.03274531
0.22723809 0.03575019 0.007043779 0.024346085 -0.091669805 0.06801673 0.007877178 0.01832057
-0.030148484 -0.10584702 0.05826312 0.0825329 -0.15927534 0.018235622 -0.037383582 0.02824213
0.041072395 0.3325792 0.15121923 0.36298642 -0.17499883 0.3296817 0.2602542 -0.42077124
-0.038703028 -0.2497187 -0.31833535 -0.2961515 0.45822126 0.21134003 -0.035734583 0.2676753
-0.22661321 0.428376 0.35780528 0.18771699 0.07481581 -0.27567154 -0.45198128 -0.008375733
-0.26345307 -0.10747758 0.18603382 -0.22895283 0.102367036 -0.05678419 -0.0051002596 0.032716077
0.26290527 0.19653691 0.20880994 0.23111533 0.15964547 0.13338587 -0.023991277 0.21126558
-0.032700256 0.10318931 0.059548896 -0.108143 0.014609413 -0.75482994 -0.7407173 -0.11598075
-0.21234255 0.012651698 0.08716533 -0.13408294 -0.0262935 -0.12875588 0.04926525 0.106318995
0.25668442 0.30129397 0.18276419 0.19234629 -0.38424027 -0.19368288 0.02427554 -0.3179789
00000000: 7e63 1bbe 83fe 513d 2e13 d93e 8df9 973e
00000010: ac06 02bd 2f0c 223e fe10 9cbd 69e0 64be
00000020: 0985 76bd 960f 32bf 9bf5 8abe 342d 09bf
00000030: 7db1 0bbe baa0 dfbd 348e 3abe 293f 4c3e
00000040: 08de 893e 088e a5be 27b8 efbd b719 cebd
00000050: c3a5 6abe dfb3 c1be 51c7 1fbe d50c 3abe
00000060: 730e 4c3e d471 893e 793f 833e 104f 163c
00000070: 029c b83d 5512 493e 2b2f 383e edd3 8b3e
00000080: 9cd6 93be c272 69be 8b21 36be 0b64 99bc
00000090: ff7d 4e3e d324 4abd 0d2e 6c3e 7c0f 4a3e
000000a0: a51c 1d3e eaf6 a63e 3d4e 82be 0bb7 b9bd
000000b0: f1ea 6cbe a5cd 85be da75 15be f246 9abe
000000c0: 10f5 00be 54c4 bebe 6a81 3fbe 8c1c 09be
000000d0: 8bf8 393e ed8c 88be 3de6 8b3e 9afe c53e
000000e0: af7f 6abe a240 3a3e 53ba 983e 973f c8bd
000000f0: dc3b ecbc 60f7 95bc 831c 4cbd f4fb 413d
00000100: d142 17bd dbb5 103c 1dcd f4bc fb71 043b
00000110: e090 1ebe 5930 1f3d ce94 60bc 21a2 d3bc
00000120: 3cb8 993d 797a d53d d103 dfbd e828 afbb
00000130: 4953 d0bd 7a46 763e 59e6 f43d ee0c bf3c
00000140: 98a9 72be 2570 a2bd 7533 f6bd 8e05 f9bd
00000150: 0680 1a3c c8ed b43c 2604 05be 25a2 dbbc
00000160: c82e 95bd 5d15 0b3e 6a63 19be 0255 d03c
00000170: 36a9 0a3e 3703 0e3e f035 b6be 5ef6 6ebe
00000180: f560 b0be 8b2e 303e c468 febd b7d7 b8be
00000190: d04d 1bbd 18a5 ffbd 39b5 93be 703f 9c3e
000001a0: 639b fabc 82ba 4f3f 84e4 303f 9b8a 6f3e
000001b0: 375c ccbc 2bfb 56bd 4def 5e3d 7f86 c43d
000001c0: cdda d0bd 037b c43d 907c d3bc 7264 7abd
000001d0: 76b4 96be 2a66 b4bd 1521 033b 724a 3bbd
000001e0: 729f 7bbe cfb8 7cbe 07bc 16be 9ec7 93bd
000001f0: 0fbd 923e 56f8 9e3d 6e82 d0be d87a 163e
00000200: e175 0d3e e607 1f3e 397f 63be 11fb 4abe
00000210: 41e0 a9be 6c24 5ebe 0fd4 13be 92a3 ef3d
00000220: ad77 563e 9a8e a6be 7bbb e3bd b4c4 9a3d
00000230: ee40 93bd a0fe 853e 1f4c d93e d4f9 003d
00000240: c2a2 723d ce37 ffbd a9c4 d4bd 7cee 8b3d
00000250: 58b0 e53d f10d d1bd a9c8 ff3d 6792 913d
00000260: b550 8f3e e08d 053e 373e cd3c 6082 123e
00000270: a55d 8c3d 0ab1 8a3e 1990 603e dad5 a13d
00000280: 46a4 6dbe 90c7 483e f81c bc3c c9e4 373e
00000290: 1b7b 44be eb7b 3cbe 1232 29be 9f4e 49be
000002a0: b8cc 8439 6f60 ae3c cc9c 96bc 0271 09bc
000002b0: 8ccb 043d eb39 b93c 18ff 9d3b f21f 06bd
000002c0: 1ab1 683e cb6e 123d 80cf e63b 7171 c73c
000002d0: 61bd bbbd 5b4c 8b3d 470f 013c 0515 963c
000002e0: f4f9 f6bc 53c6 d8bd 4fa5 6e3d 0207 a93d
000002f0: 1319 23be df62 953c 871f 19bd 0a5c e73c
00000300: 873b 283d d247 aa3e 37d9 1a3e 5bd9 b93e
00000310: e532 33be 0acc a83e 0a40 853e 546f d7be
00000320: 1187 1ebd 42b6 7fbe dafc a2be 2ba1 97be
00000330: fa9b ea3e 8569 583e 6d5e 12bd bd0c 893e
00000340: 4b0d 68be 1954 db3e 4132 b73e e238 403e
00000350: 0839 993d d224 8dbe 176a e7be 5f3a 09bc
00000360: 52e3 86be 351d dcbd a67f 3e3e 9c72 6abe
00000370: cfa5 d13d 8a96 68bd 1420 a7bb 4b01 063d
00000380: 859b 863e f940 493e 46d2 553e 7fa9 6c3e
00000390: 1a7a 233e 4e96 083e 5b89 c4bc 0156 583e
000003a0: b4f0 05bd eb54 d33d 8be9 733d 147a ddbd
000003b0: 525c 6f3c 893c 41bf a69f 3dbf 5187 edbd
000003c0: 5370 59be 1149 4f3c bd83 b23d 0a4d 09be
000003d0: 7765 d7bc 95d8 03be 5cca 493d c6bd d93d
000003e0: 246c 833e 3443 9a3e 8926 3b3e 6df6 443e
000003f0: 24bb c4be ce54 46be 7fdd c63c 21ce a2be

c_fc1.bias f4 [32]
-0.51217306 -0.20243572 -0.23026057 -0.36548132 0.08063682 0.017200636 -0.114152804 0.046031006
0.24969971 -0.16542754 0.044702582 0.17231229 0.26189333 -0.18765162 -0.034543406 0.016101735
-0.22001162 -0.24484622 0.16236648 -0.7864092 0.2789103 0.4220579 -0.69055104 0.0740811
0.010935975 0.09481628 0.14459914 0.0734178 0.1682785 0.060015388 -0.08168275 0.014126931
00000000: c61d 03bf 4f4b 4fbe 6dc9 6bbe 5e20 bbbe
00000010: eb24 a53d 59e8 8c3c f2c8 e9bd 028b 3c3d
00000020: 48b1 7f3e d665 29be 0e1a 373d a272 303e
00000030: e216 863e bf27 40be 637d 0dbd c9e7 833c
00000040: ba4a 61be f8b8 7abe 6643 263e 1d52 49bf
00000050: 55cd 8e3e f917 d83e f4c7 30bf d5b7 973d
00000060: ce2c 333c 0a2f c23d cc11 143e 125c 963d
00000070: 3351 2c3e b2d2 753d 4949 a7bd a574 673c

c_bn2.weight f4 [32]
0.62308955 0.69935936 0.35369977 0.50673425 0.5147227 0.5709933 0.47122523 0.51931375
0.8873742 0.564782 0.4643242 0.5590103 0.4426665 0.5397128 0.562289 0.35042912
0.54973024 0.524143 0.41903073 1.2141547 0.5090029 0.6933089 0.8673747 0.449672
0.5333629 0.4840185 0.5212185 0.44684455 0.36393797 0.44344184 0.34530047 0.42062947
00000000: cc82 1f3f 3709 333f 2318 b53e 56b9 013f
00000010: dec4 033f 9e2c 123f 6f44 f13e bff1 043f
00000020: f52a 633f 8e95 103f e7bb ed3e 4d1b 0f3f
00000030: 2fa5 e23e 9e2a 0a3f 2cf2 0f3f 726b b33e
00000040: 1fbb 0c3f 3c2e 063f 328b d63e 6c69 9b3f
00000050: 044e 023f b17c 313f 450c 5e3f 693b e63e
00000060: 798a 083f 46d1 f73e 936e 053f cfc8 e43e
00000070: 1456 ba3e cf0a e33e 39cb b03e bf5c d73e

c_bn2.bias f4 [32]
0.010451733 -0.008545361 0.0059658517 -0.003480739 0.0056120614 0.0069935126 -0.010533159 -0.0018672987
-0.0059452 -0.0029413225 0.010566053 0.008244051 -0.006830873 -0.008054726 -0.0072709275 -0.002757991
-0.0043752408 -0.0040538344 -0.01140183 0.009293927 0.010748756 0.002458328 0.0019557164 0.01101376
0.010715512 -0.0054986156 0.0025703697 -0.011593834 0.006820279 -0.010877746 -0.01181869 -0.009900466
00000000: bf3d 2b3c d801 0cbc 317d c33b 1c1d 64bb
00000010: 62e5 b73b d629 e53b 4593 2cbc 26c0 f4ba
00000020: f4cf c2bb 34c3 40bb 3d1d 2d3c 0e12 073c
00000030: 84d5 dfbb f8f7 03bc f640 eebb 69bf 34bb
00000040: 2e5e 8fbb 07d6 84bb bece 3abc 8e45 183c
00000050: 8d1b 303c e61b 213b 7a2b 003b 0f73 343c
00000060: 1d90 2f3c bb2d b4bb a673 283b 10f4 3dbc
00000070: a67c df3b 9338 32bc 2ea3 41bc 9035 22bc

c_bn2.running_mean f4 [32]
-0.5493647 -0.51417756 -0.57523364 -0.57008713 -0.7930714 -0.8479883 -0.8464763 0.84732056
0.101450294 -0.83812195 0.8279717 -0.74208885 0.848928 -0.5948231 0.85430044 -0.8484711
-0.61386293 0.7508543 0.82666427 -0.013783246 0.5776277 -0.050791357 0.016832165 -0.79746646
0.85374 0.8467792 0.8528618 0.81760037 -0.023237478 0.84454703 0.84744143 -0.8508571
00000000: 2aa3 0cbf 24a1 03bf 8342 13bf 3bf1 11bf
00000010: ba06 4bbf c315 59bf acb2 58bf 00ea 583f
00000020: 2cc5 cf3d 298f 56bf f4f5 533f 89f9 3dbf
00000030: 5853 593f 5446 18bf 6fb3 5a3f 6735 59bf
00000040: 1f26 1dbf fd37 403f 45a0 533f 20d3 61bc
00000050: 69df 133f 990a 50bd 9ce3 893c c326 4cbf
00000060: b48e 5a3f 86c6 583f 2755 5a3f 424e 513f
00000070: 865c bebc 3c34 583f ecf1 583f c5d1 59bf

c_bn2.running_var f4 [32]
0.24452782 0.24041283 0.24121054 0.24034117 0.24574137 0.2462507 0.24576607 0.24396072
0.3579018 0.24425893 0.24334067 0.25315785 0.24486783 0.24217962 0.24049114 0.24270831
0.24279433 0.25464 0.24117404 0.33533973 0.24177445 0.40218186 0.31310445 0.24152163
0.24095841 0.24115096 0.2412198 0.24706243 0.23071682 0.24665521 0.24592194 0.24342805
00000000: 8065 7a3e c82e 763e e5ff 763e ff1b 763e
00000010: a0a3 7b3e 2529 7c3e 1aaa 7b3e d7d0 793e
00000020: e83e b73e 031f 7a3e 4c2e 793e e89d 813e
00000030: a2be 7a3e effd 773e 4f43 763e 8788 783e
00000040: 149f 783e 2d60 823e 54f6 763e a6b1 ab3e
00000050: b993 773e c8ea cd3e 3a4f a03e 7251 773e
00000060: cdbd 763e 47f0 763e 5302 773e effd 7c3e
00000070: 0841 6c3e 2f93 7c3e f6d2 7b3e 3445 793e

c_fc2.weight f4 [1, 32]
0.014685371 -0.10405257 -0.11427749 -0.09763033 0.09805909 0.005045027 0.059074037 -0.054252595
-0.23654704 -0.034893766 -0.0059513017 0.13249204 0.11129318 -0.11186901 0.032766923 -0.0933955
-0.13565956 -0.01251784 -0.09216597 0.4009528 0.016606355 -0.047955617 0.14911744 0.074526705
0.004767628 0.02975755 -0.15558228 0.05074691 -0.051168546 -0.04587899 -0.04626968 -0.020572733
00000000: e99a 703c 8419 d5bd 510a eabd 69f2 c7bd
00000010: 34d3 c83d c150 a53b 9ef7 713d f837 5ebd
00000020: 6339 72be c4ec 0ebd 2303 c3bb feab 073e
00000030: aeed e33d 941b e5bd 9c36 063d 2446 bfbd
00000040: 57ea 0abe a017 4dbc 83c1 bcbd af49 cd3e
00000050: 0d0a 883c 1c6d 44bd 3eb2 183e 75a1 983d
00000060: c339 9c3b 1bc6 f33c f650 1fbe fedb 4f3d
00000070: 1c96 51bd 9ceb 3bbd 4785 3dbd 2688 a8bc
