autosurv/saved_models/sup_checkpoint_tune.pt (torch, 7227 bytes, 11 tensors)

c_bn_input.weight f4 [8]
1.0173575 0.8448307 0.86809444 1.0491879 0.8984326 0.82719535 0.924166 0.917105
00000000: c538 823f d346 583f 703b 5e3f ca4b 863f
00000010: aeff 653f 13c3 533f 2596 6c3f 65c7 6a3f

c_bn_input.bias f4 [8]
-0.11956066 -0.060637087 0.08299579 -0.16167586 0.08060235 -0.022197736 -0.09558467 0.11264672
00000000: 38dc f4bd 985e 78bd b2f9 a93d 5b8e 25be
00000010: d812 a53d 07d8 b5bc e5c1 c3bd 53b3 e63d

c_bn_input.running_mean f4 [8]
-0.038692225 -0.139173 -0.14698231 -0.17986545 0.15345216 0.08149564 -0.15092552 0.031772524
00000000: bd7b 1ebd 5e83 0ebe 8882 16be a62e 38be
00000010: 9022 1d3e 30e7 a63d 388c 1abe e823 023d

c_bn_input.running_var f4 [8]
0.815642 1.7647445 2.8325722 2.1089756 2.7100298 1.1782742 2.1695368 1.5045217
00000000: eacd 503f 26e3 e13f dd48 3540 75f9 0640
00000010: 2171 2d40 b0d1 963f b1d9 0a40 2b94 c03f

c_fc1.weight f4 [32, 12]
-0.032401096 0.25527984 -0.03143 0.2124617 -0.13474864 -0.18490092 0.28891844 -0.23836438
0.0068129525 -0.26431245 -0.23978949 -0.296671 0.042229567 0.016135428 -0.056700822 -0.0011139533
0.00044888115 -0.103513256 -0.0012267138 -0.0738804 0.08774179 0.084479585 -0.0012874088 0.00037765488
-0.15350416 -0.10172242 -0.24893542 -0.32726216 -0.1336607 -0.31885153 0.031563234 0.27644667
-0.016269764 0.024284616 -0.12499687 0.26233435 -0.122501664 0.050089907 0.07373864 -0.027431997
0.2818762 -0.23538394 0.087126076 0.113840714 -0.012139796 0.0778185 -0.024616811 0.052344546
-0.021607596 -0.07692081 0.050509878 0.09891706 -0.0008383298 0.061137076 -0.053551264 -0.0044504115
0.11197018 -0.04060215 -0.12763232 0.003225114 0.0053375023 -0.0073515926 0.0027482877 -0.0010065328
-0.08538575 -0.10337704 0.003590744 0.0821005 0.09799772 -0.048686996 0.0008273163 -0.05304015
-0.0032885976 -0.11643936 -0.0023247586 0.0015673677 -0.07493558 0.010924865 0.13112439 -0.0032672856
0.10015587 -0.0021473034 0.011827153 -0.121926315 0.10475135 0.07761351 0.0246107 -0.098102435
0.082062796 0.0044553718 0.024724184 0.013552623 -0.022032214 0.02143802 0.007432684 0.018287813
0.061039988 -0.07303679 -0.04148301 0.141152 -0.24750732 0.17104602 0.10977293 0.007608942
0.014374779 -0.20156755 -0.067203455 -0.0060503096 -0.034433722 -0.04713676 -0.041634835 0.15524532
-0.25483707 0.19895583 -0.061786167 -0.18106297 0.0072568143 -0.46592814 -0.3552605 0.054080635
-0.052824046 0.039603543 0.02102555 0.1960186 -0.1476075 9.605262e-05 0.118309736 -0.03191197
0.015098469 -0.35916364 -0.15984769 -0.113286905 0.24024391 0.160907 -0.11684456 0.225812
-0.065075085 -0.102327235 0.16011746 -0.056549747 0.0033296475 -0.4701861 -0.30460206 -0.04844272
0.15395746 -0.12153258 -0.07452174 0.19794445 0.03577883 0.16771455 0.02694906 -0.0077722953
-0.07138473 0.051506326 0.12902209 0.12355599 0.00075268693 0.0028103087 0.0011095814 -0.08822039
-0.04685308 -0.08348971 -0.005108572 0.10247669 0.11897288 0.10023805 0.033587515 -0.019718632
0.10960883 0.002012875 0.06547228 0.0481489 -0.07535252 0.10407169 0.0027816936 0.006823222
-0.112728015 -0.008951312 -0.09166866 -0.00033691645 0.062004864 0.110251166 0.0019281569 -0.052541394
-0.001514102 -0.0017517725 0.047899205 -0.014902124 0.081028506 -0.019053362 0.0043701995 0.07137918
0.010252341 -0.0057309745 0.06685932 0.0018095373 -7.883306e-05 -0.0014638946 -0.11498388 -0.017484417
0.0895659 -0.10076728 -0.0023567916 -0.032783214 0.0448954 0.0016035576 -0.008139537 0.016928013
-0.049013976 -0.10402783 -0.002022532 -0.002063709 -0.11499696 0.00068116456 -0.06251108 -0.00012215774
-0.028862378 0.10858732 0.0014564345 0.001927272 -0.066684395 -0.02750375 -0.03355215 -0.008658534
0.068194725 0.13981004 0.108592235 -0.01869658 0.0015733251 0.047089145 0.011208117 0.048880354
-0.12612914 0.13397652 -0.034369603 -0.04168284 -0.07954702 -0.10550772 0.0126755135 0.10337954
-0.0073210034 0.0052073062 0.03454128 -0.11549215 0.11974423 0.007763159 0.09821513 -0.060912967
-0.08583248 -0.0076149246 -0.0073209773 -0.0012951557 0.0025681704 -0.04781411 0.00267983 -0.12515959
00000000: 03b7 04bd 0ab4 823e bebc 00bd 8f8f 593e
00000010: 8cfb 09be ab56 3dbe 1eed 933e cb15 74be
00000020: 303f df3b f653 87be 608b 75be 43e5 97be
00000030: e9f8 2c3d 722e 843c 1f3f 68bd 1202 92ba
00000040: cf57 eb39 c2fe d3bd afc9 a0ba 9b4e 97bd
00000050: f8b1 b33d a203 ad3d 45be a8ba fbff c539
00000060: 3230 1dbe d853 d0bd ede8 7ebe e88e a7be
00000070: 5ade 08be 8240 a3be 7348 013d 6b8a 8d3e
00000080: 2b48 85bc 88f0 c63c 5cfe ffbd b050 863e
00000090: 27e2 fabd 132b 4d3d 4904 973d 11b9 e0bc
000000a0: 1452 903e 7d08 71be 286f b23d 5225 e93d
000000b0: ffe5 46bc 4e5f 9f3d 32a9 c9bc 3c67 563d
000000c0: 6a02 b1bc a888 9dbd 72e3 4e3d 0795 ca3d
000000d0: 5cc3 5bba df6a 7a3d 9258 5bbd c2d4 91bb
000000e0: 9f50 e53d 714e 26bd 0cb2 02be 6f5c 533b
000000f0: 37e6 ae3b a1e5 f0bb 9e1c 343b a3ed 83ba
00000100: b9de aebd 57b7 d3bd b052 6b3b 4f24 a83d
00000110: 07b3 c83d 046c 47bd 42e0 583a a140 59bd
00000120: 8385 57bb c277 eebd fa5a 18bb 2270 cd3a
00000130: d377 99bd 34fe 323c 7945 063e f51f 56bb
00000140: 851e cd3d c6b9 0cbb adc6 413c 81b4 f9bd
00000150: e087 d63d d5f3 9e3d 619c c93c eee9 c8bd
00000160: 8a10 a83d 5efe 913b 5f8a ca3c d20b 5e3c
00000170: e77c b4bc c99e af3c df8d f33b 53d0 953c
00000180: 1105 7a3d 5094 95bd 17ea 29bd 268a 103e
00000190: 8f72 7dbe b026 2f3e a1d0 e03d 6f54 f93b
000001a0: 3184 6b3c b967 4ebe f7a1 89bd ad41 c6bb
000001b0: 600a 0dbd 7a12 41bd 4a89 2abd a1f8 1e3e
000001c0: 017a 82be 14bb 4b3e 7e13 7dbd 9268 39be
000001d0: 92ca ed3b 228e eebe b4e4 b5be a883 5d3d
000001e0: 075e 58bd 5337 223d c63d ac3c 1ab9 483e
000001f0: 6c26 17be dc6f c938 604c f23d 20b6 02bd
00000200: 925f 773c 4ce4 b7be 1daf 23be f702 e8bd
00000210: 8002 763e cec4 243e 334c efbd 433b 673e
00000220: 1646 85bd f190 d1bd d5f5 233e b5a0 67bd
00000230: 3736 5a3b 3cbc f0be cdf4 9bbe e06b 46bd
00000240: 06a7 1d3e 13e6 f8bd db9e 98bd f3b1 4a3e
00000250: d38c 123d 5dbd 2b3e 46c4 dc3c bdae febb
00000260: 2832 92bd 4cf8 523d 5e1e 043e ec0a fd3d
00000270: f74f 453a 282d 383b 606f 913a e4ac b4bd
00000280: 04e9 3fbd a7fc aabd cf65 a7bb 4ddf d13d
00000290: 0ea8 f33d 9b49 cd3d 1093 093d f888 a1bc
000002a0: 987a e03d 70ea 033b 5516 863d c837 453d
000002b0: 6c52 9abd 8a23 d53d 134d 363b 5695 df3b
000002c0: f2dd e6bd 86a8 12bc c7bc bbbd 29a4 b0b9
000002d0: d0f8 7d3d 5dcb e13d 36ba fc3a a535 57bd
000002e0: d574 c6ba bb9b e5ba f531 443d 0a28 74bc
000002f0: 46f2 a53d cc15 9cbc e433 8f3b 3f2f 923d
00000300: 6ff9 273c e6ca bbbb 8aed 883d ff2d ed3a
00000310: 2d53 a5b8 27e0 bfba ab7c ebbd 7b3b 8fbc
00000320: 546e b73d 135f cebd 6774 1abb b147 06bd
00000330: 3de4 373d 772e d23a b15b 05bc 9eac 8a3c
00000340: e1c2 48bd 8b0c d5bd 758c 04bb 4b3f 07bb
00000350: 8783 ebbd 2e90 323a cf05 80bd 7817 00b9
00000360: cb70 ecbc 0763 de3d d5e5 be3a 849c fc3a
00000370: d491 88bd 8b4f e1bc fb6d 09bd 86dc 0dbc
00000380: ada9 8b3d 5d2a 0f3e 9b65 de3d 9229 99bc
00000390: 0838 ce3a 8ce0 403d 40a2 373c c436 483d
000003a0: ff27 01be 2431 093e 24c7 0cbd a0bb 2abd
000003b0: 8ce9 a2bd 6e14 d8bd f5ac 4f3c a7b8 d33d
000003c0: 07e5 efbb 0da2 aa3b 287b 0d3d 2687 ecbd
000003d0: 763c f53d 1962 fe3b 0425 c93d e07f 79bd
000003e0: f0c8 afbd 9e86 f9bb cfe4 efbb 37c2 a9ba
000003f0: c04e 283b bad8 43bd 16a0 2f3b d629 00be

c_fc1.bias f4 [32]
0.13376075 0.0016964608 0.32197446 0.1958908 0.0018456345 -0.050633922 -0.021877153 -0.051472124
-0.08470935 0.06672956 -0.12484832 0.035581436 0.18432103 -0.0003400792 0.00676327 -0.03129443
-0.03276434 -0.040564496 0.004077618 0.10508282 -0.0054594064 -0.059428792 0.0078743985 0.00051775016
0.077694625 -0.1346219 0.3375489 0.00019084534 0.08413805 -0.092304625 0.0131418165 -0.014415269
00000000: 94f8 083e c75b de3a d6d9 a43e 9997 483e
00000010: 38e9 f13a 8465 4fbd b737 b3bc 6fd4 52bd
00000020: 187c adbd 82a9 883d 7ab0 ffbd d7bd 113d
00000030: a7be 3c3e a84c b2b9 6c9e dd3b 972e 00bd
00000040: e733 06bd f526 26bd 8a9d 853b a935 d73d
00000050: d2e4 b2bb 9b6b 73bd 9f03 013c a0b9 073a
00000060: 5c1e 9f3d 53da 09be 36d3 ac3e a81d 4839
00000070: 9250 ac3d 350a bdbd c650 573c 052e 6cbc

c_bn2.weight f4 [32]
1.0556284 0.96066815 1.012577 1.0179985 0.9436109 0.94644916 0.96241176 0.88220197
1.0677674 1.1554135 1.0558249 1.1736636 0.9813667 0.94839936 0.9702972 0.89369166
0.93421143 0.9325373 0.9495771 0.9788728 0.94640946 0.9311369 1.1071985 0.9199036
0.9497499 1.114462 1.155267 0.9703702 0.9397353 0.90835214 0.9176672 0.9611663
00000000: d51e 873f 59ee 753f 209c 813f c64d 823f
00000010: 7c90 713f 7e4a 723f 9e60 763f fdd7 613f
00000020: 9aac 883f 97e4 933f 4525 873f 9c3a 963f
00000030: d93a 7b3f 4dca 723f 6665 783f fac8 643f
00000040: 7b28 6f3f c4ba 6e3f 7c17 733f 6897 7a3f
00000050: e447 723f fd5e 6e3f aeb8 8d3f cd7e 6b3f
00000060: cf22 733f b1a6 8e3f cadf 933f 2e6a 783f
00000070: 7e92 703f c489 683f 3dec 6a3f ff0e 763f

c_bn2.bias f4 [32]
-5.2485666e-06 5.0340045e-06 -3.1629745e-06 -1.6239272e-06 -7.956249e-06 -1.0662755e-05 9.439905e-06 -1.0562231e-05
-2.3024279e-05 -2.9884388e-05 5.3596386e-06 -6.2233295e-05 -1.6619812e-05 -5.7822804e-06 1.0738521e-05 -1.2448321e-05
-8.802022e-06 -1.0438667e-05 -6.369578e-06 7.5544317e-06 -1.3351035e-05 -7.0803944e-06 -4.6708265e-05 -7.359053e-07
-2.086738e-05 7.5073076e-05 6.1388305e-06 3.7193922e-06 6.861006e-06 1.0506796e-05 -1.1452489e-05 -3.68161e-06
00000000: d81c b0b6 c5e9 a836 7d43 54b6 b7f5 d9b5
00000010: d47b 05b7 2fe4 32b7 1560 1e37 7034 31b7
00000020: 4324 c1b7 3cb0 fab7 f2d6 b336 3f83 82b8
00000030: c66a 8bb7 6905 c2b6 9929 3437 22d9 50b7
00000040: 66ac 13b7 bc21 2fb7 42ba d5b6 137c fd36
00000050: 42fe 5fb7 2094 edb6 9ee8 43b8 078b 45b5
00000060: 5b0c afb7 8d70 9d38 27fc cd36 ac9a 7936
00000070: 9837 e636 5846 3037 1124 40b7 9411 77b6

c_bn2.running_mean f4 [32]
0.24754763 1.0025721 0.028714964 -0.41285318 0.9987907 0.99804544 1.0080307 -0.9785242
0.26156607 -0.0109409485 0.08763371 0.010950166 -1.0057027 1.0013351 -1.0021394 0.99188143
0.98898715 -0.9813034 0.9801484 -0.98831 -1.0010426 -1.0064912 0.20135254 1.0079888
-0.95355004 -0.025979185 -0.02872941 0.99710584 0.98517555 0.9951535 1.0031168 0.9920199
00000000: 207d 7d3e 4854 803f a53b eb3c 7e61 d3be
00000010: bfb0 7f3f e87f 7f3f 2607 813f 9080 7abf
00000020: fdeb 853e aa41 33bc 4d79 b33d 5368 333c
00000030: deba 80bf c02b 803f 1b46 80bf f1eb 7d3f
00000040: 432e 7d3f b336 7bbf 01eb 7a3f e201 7dbf
00000050: 2a22 80bf b4d4 80bf 5c2f 4e3e c705 813f
00000060: db1b 74bf 4dd2 d4bc f159 ebbc 5442 7f3f
00000070: 7734 7c3f 61c2 7e3f 2266 803f 04f5 7d3f

c_bn2.running_var f4 [32]
0.4127041 0.9997188 0.4765121 0.37205878 1.0001336 0.999256 1.0004538 0.94478446
0.29138508 0.2758156 0.23442344 0.32331344 0.99369115 0.9997846 1.0005653 0.9992122
0.9991872 0.9993536 0.95975184 0.99724007 0.9940459 1.0000378 0.3583128 1.0002258
0.9329699 0.25794607 0.31118506 0.9999613 0.99368 0.99899334 0.9969894 0.99108195
00000000: f44d d33e 92ed 7f3f 65f9 f33e 7d7e be3e
00000010: 6104 803f 3ecf 7f3f df0e 803f 65dd 713f
00000020: 6d30 953e b437 8d3e b30c 703e 5789 a53e
00000030: 8b62 7e3f e2f1 7f3f 8612 803f 5fcc 7f3f
00000040: bbca 7f3f a3d5 7f3f 4cb2 753f 204b 7f3f
00000050: cb79 7e3f 3d01 803f c674 b73e 6607 803f
00000060: 1ed7 6e3f 8211 843e a653 9f3e 77fd 7f3f
00000070: d061 7e3f 07be 7f3f b33a 7f3f 8cb7 7d3f

c_fc2.weight f4 [1, 32]
0.06834465 0.0073063155 -0.051085018 -0.046985283 0.018231338 0.0010812442 0.0055693774 -0.00495625
0.07080648 0.13591152 0.07035688 0.14870246 -0.031962696 -1.9191746e-05 -0.007783583 0.003431031
-0.0030252463 0.013021178 -0.0014937425 0.013509664 0.0012293085 -0.0024532287 0.105067655 -0.0012745103
-0.024642061 -0.11060802 -0.14296512 -0.007813765 -0.011936999 -0.007828374 -0.0038285337 0.007025459
00000000: 48f8 8b3d d169 ef3b 863e 51bd a473 40bd
00000010: e359 953c 89b8 8d3a 537f b63b 0a68 a2bb
00000020: fd02 913d 642c 0b3e 4517 903d 7545 183e
00000030: 51eb 02bd f6fd a0b7 6d0d ffbb 26db 603b
00000040: 3643 46bb c756 553c aec9 c3ba a357 5d3c
00000050: c020 a13a 59c6 20bb b62d d73d 780d a7ba
00000060: 26de c9bc 7586 e2bd 7365 12be 4e05 00bc
00000070: 6793 43bc 9542 00bc 23e8 7abb d235 e63b
