autosurv/saved_models/sup_checkpoint_tune.pt (torch, 8507 bytes, 11 tensors)

c_bn_input.weight f4 [16]
000000 5c 9d 6b 3f 6c 1d 70 3f 53 2b 51 3f 02 af 44 3f
       0.92036986 0.93794894 0.8170673 0.7682954
000010 0b 32 74 3f eb df 44 3f 70 d0 42 3f c4 2a 68 3f
       0.9538886 0.7690417 0.760993 0.90690255
000020 d0 d2 5e 3f 5b e5 3f 3f ac 0b 63 3f b3 dc 67 3f
       0.87040424 0.74959344 0.88689685 0.90571135
000030 f8 6e 48 3f 66 75 43 3f 55 21 3a 3f 16 08 67 3f
       0.78294325 0.7635101 0.7270711 0.90246713

c_bn_input.bias f4 [16]
000000 42 08 81 3e 30 ba 8b be 2b a0 4d be ee cf 2a 3e
       0.25201613 -0.27290487 -0.2008063 0.16680881
000010 de 30 94 be d7 6b e2 bd af 4a 4d be a1 2f 84 be
       -0.28943533 -0.11055725 -0.20048021 -0.25817588
000020 98 cf 9c 3e 7e f4 5c bd 03 ac 5e 3e d9 6f 81 be
       0.3062713 -0.053944103 0.21745305 -0.25280645
000030 2c b4 09 be b7 55 d6 3d 2f 14 ae 3d 4c f8 8b be
       -0.13447636 0.104655676 0.084999435 -0.27337873

c_bn_input.running_mean f4 [16]
000000 09 76 72 3d 40 dc a9 3c 3e 6d b1 3c 2b bf d0 3c
       0.0591946 0.020734906 0.021658536 0.025481781
000010 3b 38 90 3c 3a db 90 3d 1c 02 1a 3d 37 e0 4b bc
       0.017604938 0.07073064 0.037599668 -0.012443594
000020 f0 bd 7f 3d 55 33 34 bb ec a8 b3 bd 42 80 0d bd
       0.062436998 -0.0027496417 -0.08772454 -0.034546144
000030 e8 89 f8 bb bd 55 02 3e 3f d3 95 3d 38 ce 14 3d
       -0.007584799 0.12728019 0.073156826 0.036329478

c_bn_input.running_var f4 [16]
000000 5b b1 8f 3f a5 42 c6 3f 8c 0f f1 3f 5a fb d9 3f
       1.1226 1.5489088 1.883287 1.7029831
000010 d9 45 02 40 c2 e0 76 3f 71 8d 0e 40 3c 58 0b 40
       2.0355132 0.96436703 2.227383 2.1772604
000020 c9 a6 aa 3f 7e 65 a4 3f 9e 88 82 3f 52 e7 d2 3f
       1.3332149 1.2843473 1.0197942 1.6476843
000030 c5 ba d6 3f 23 3f a0 3f 1b 96 5a 3f f1 ba 36 3f
       1.6775748 1.2519268 0.8538529 0.71379

c_fc1.weight f4 [32, 20]
000000 f3 f9 26 3e 57 92 42 bc bf 69 71 bd 8a 43 c0 3d
       0.16306286 -0.01187571 -0.058938738 0.09387882
000010 29 1c 80 bb b4 aa b0 3d 50 ca b7 bd 09 7e 54 bd
       -0.003909607 0.08626309 -0.08974135 -0.05187801
000020 a4 e4 90 3d 95 cc 43 3c 6e d3 e1 3d ae 14 5c bd
       0.0707486 0.011950632 0.11026655 -0.05373066
000030 6e 3b e4 3d 72 8b 1f bd cd 19 68 bd b5 ed 57 bd
       0.11144148 -0.038951345 -0.05666523 -0.05271693
000040 16 17 0e bc e5 20 11 3f 41 1a 5d 3e 94 f6 0c bd
       -0.008672496 0.5669082 0.21592046 -0.034414843
000050 0f dc 0d bc 4d 8f de 3d 47 3d e1 3d 12 41 4e bd
       -0.008658423 0.10867176 0.10998016 -0.050355025
000060 33 2f f5 3d e0 34 65 bd a8 ee 3f bc d2 9a fe 3b
       0.11971893 -0.05595863 -0.011714615 0.007769921
000070 e4 23 2f bd db 41 74 3b 41 09 f2 bc 4a b2 cc 3d
       -0.042758837 0.0037270698 -0.029545428 0.099949434
000080 23 a9 17 bb 5b 8a 76 bd 44 74 86 bd 5e 67 95 3c
       -0.0023141585 -0.06019054 -0.06565145 0.018237766
000090 88 67 44 3c 45 07 ea be 87 e4 89 be f0 95 89 3d
       0.011987574 -0.4570867 -0.26932165 0.067180514
0000a0 92 77 88 bd cf 77 58 bc d1 71 60 3d 84 76 18 3d
       -0.06663431 -0.013212158 0.054796044 0.0372224
0000b0 56 a2 94 bd b0 6a d1 bd 2d 2f c8 3c 01 59 dc bc
       -0.072575256 -0.10225427 0.024436558 -0.02689791
0000c0 e5 1a 46 3d 29 7a 15 bd 74 72 ba 3d b7 c8 a5 bd
       0.048365492 -0.036493454 0.091038615 -0.08094924
0000d0 d4 e3 12 bc 55 13 4a 3d b7 ab 0e bd 01 53 18 3d
       -0.008965451 0.049334843 -0.03483173 0.037188534
0000e0 d3 ef 1b 3d e0 78 7a 3c b2 b1 d9 bd 0a 27 c2 bd
       0.03807051 0.015287608 -0.10629596 -0.09480102
0000f0 31 dc 9b ba 52 e1 86 bb 25 c7 9c bb 60 78 9e bb
       -0.0011891184 -0.0041162157 -0.004784482 -0.004836127
000100 e4 e6 89 3c aa 4a cd 3a 46 76 11 bb 74 d8 a0 3b
       0.01683373 0.001566251 -0.002219574 0.0049086157
000110 6b 10 c7 b9 78 9d a7 3b 32 38 0d bb 6c 30 e4 3b
       -0.0003796847 0.0051152073 -0.0021548388 0.00696378
000120 30 bd fc 3a db 59 88 3b 63 8d 1b bb e4 5a 92 ba
       0.0019282456 0.004161102 -0.0023735396 -0.0011166004
000130 02 5b aa 3d 80 26 b8 3a 8f 76 09 3b e7 84 c1 3b
       0.083181396 0.001404956 0.0020975207 0.005905736
000140 f6 49 b8 bd 41 40 5b 3e f4 ef 41 3d 1c d4 ad bd
       -0.08998482 0.2141123 0.047347978 -0.08487722
000150 34 49 71 3e fc 8a af 3d 70 79 82 bd 90 23 34 3c
       0.23563081 0.08571431 -0.063708186 0.010994807
000160 4f 0d 1d be b5 51 c7 3c cd 33 41 3c 0e 3b bb 3d
       -0.15337108 0.024330953 0.011792135 0.09142123
000170 89 84 90 3d 1c 8b 8b bd c8 b7 aa bd 07 88 2b 3e
       0.07056529 -0.068136424 -0.08335835 0.16751109
000180 a8 af 5f 3c 58 2c 02 bf cf db 83 be be a0 2f 3e
       0.01365272 -0.50848913 -0.25753638 0.17151162
000190 e7 8c 07 3e 9e c5 f9 bc 5f 24 e8 bd 27 0e 12 3c
       0.13237344 -0.030489739 -0.11335062 0.008914507
0001a0 5c 61 fb 3d f6 4c c8 3d d5 aa 12 bd 61 2c 56 3d
       0.12274429 0.09780304 -0.03580745 0.052288417
0001b0 d1 cf cb bd 6e 67 58 bd 9c 79 c9 bd bd ba 3e 3d
       -0.09951747 -0.052833013 -0.09837648 0.046564806
0001c0 a2 1b 9a ba 53 f9 6d bd 75 9b 00 bc 07 89 09 bd
       -0.0011757503 -0.058099102 -0.007849564 -0.033577945
0001d0 76 cc 32 bd e1 46 1c bd 5b c6 af 3d ab b6 a9 3d
       -0.04365202 -0.038153533 0.08582755 0.08286794
0001e0 ee f1 e4 3a a7 4c 24 bd ef f6 42 3d 23 a3 82 3d
       0.001746712 -0.040112164 0.047598775 0.06378772
0001f0 3b 4b 3f 3d 39 ed e2 3c c3 b2 e2 3c c7 4f a2 3d
       0.046702605 0.027701007 0.02767313 0.079253726
000200 38 cb c8 bc b2 ce da bc 27 00 61 bd dc 4f e2 3c
       -0.024510965 -0.026709888 -0.054931786 0.02762597
000210 5b 41 8f 3a a5 70 1f bd 1d 81 24 3b 21 05 24 3d
       0.0010929512 -0.038925786 0.0025101372 0.040043954
000220 b4 a9 70 3c 76 ac da be 21 c8 40 be c9 8f 2d 3d
       0.014688898 -0.42709702 -0.18826343 0.042373452
000230 28 06 80 bc b9 52 2a bd 96 61 28 bd 45 5a 81 3c
       -0.015627936 -0.041582797 -0.04110869 0.015790114
000240 f0 1a 38 bd 3b 88 ac 3c bb 6f 94 3d 16 53 83 3d
       -0.044947565 0.021061053 0.072478734 0.06412332
000250 be 79 a1 bc 91 97 a3 3c 60 28 19 3d 27 d0 28 bc
       -0.019711372 0.019969733 0.03739202 -0.010303534
000260 96 8e b4 3c de fc 8c bc 85 d4 f2 b8 ee 76 cf 3c
       0.022040647 -0.01721042 -0.00011579044 0.025325265
000270 3b 7d 8b bc 4d 14 ac 3e 25 6b 2a 3e 57 79 b5 bd
       -0.017027488 0.33609238 0.16642435 -0.08861034
000280 d0 8e 0c bd a4 96 19 3d 67 70 8a 3d 89 c6 1a 3d
       -0.034315884 0.037497178 0.0675972 0.037786994
000290 98 06 31 3d ed ff be bc 9b 4c 43 3c 0c 66 2e 3d
       0.04321918 -0.023315394 0.01192012 0.04257779
0002a0 c6 85 ca bc d5 82 82 3b 62 c2 66 bd 87 84 e6 3c
       -0.024721991 0.0039828815 -0.05633772 0.028139366
0002b0 14 60 69 bb f7 cd 39 bc e2 c4 39 bb 0f 9f 3b 3d
       -0.0035610246 -0.01134061 -0.002834611 0.045805987
0002c0 12 ac f2 3b 7d 0d d4 be f0 81 86 be e4 14 9c 3c
       0.0074057663 -0.4141654 -0.2627101 0.01905293
0002d0 41 05 b7 bc 9d 82 3d bb 83 74 a1 ba 4c 0b 31 3b
       -0.022341372 -0.0028916963 -0.0012318048 0.002701479
0002e0 42 43 af bc 7f 71 0d bd ba 68 f3 3c a8 93 9d bc
       -0.021394376 -0.034532066 0.029713023 -0.019235447
0002f0 4c 7c 54 3b 6a 82 b9 3c 73 74 a2 3c 60 11 69 bb
       0.003242272 0.022645194 0.019830918 -0.0035563335
000300 d9 0c ff bb f7 b4 dc ba b8 25 64 3c a1 20 90 3b
       -0.007783514 -0.00168386 0.0139250085 0.004398421
000310 a1 59 61 bd 54 ce 1e bc 6a 90 c3 bc 52 0e 4f bc
       -0.055017117 -0.009692747 -0.023872573 -0.012637692
000320 b9 84 1a ba f9 32 17 3c 00 56 db b8 d6 b6 8e 38
       -0.0005894411 0.009228461 -0.000104587525 6.8051435e-05
000330 0f b5 19 bb 22 36 5f ba 6a a8 fb 3a aa d7 94 ba
       -0.0023453867 -0.00085148413 0.0019199972 -0.0011355777
000340 51 a6 b3 3b e8 d4 a7 b9 b6 19 1b ba bf 82 49 bb
       0.005482473 -0.0003201135 -0.0005916612 -0.0030748097
000350 27 6e 26 ba 9e 2e 8f ba 45 f9 55 39 02 a2 9b 39
       -0.00063488114 -0.0010923927 0.00020406123 0.0002968461
000360 82 ee c9 bd bf 73 9a b9 e4 5f 60 bb 21 43 20 bb
       -0.09859945 -0.00029459407 -0.0034236843 -0.0024454074
000370 e3 f6 f3 bd 89 78 81 3d d5 bf a8 3d 57 ee e2 3c
       -0.11912324 0.063218184 0.08239714 0.02770154
000380 52 b9 0b be 74 13 bd bd 86 f1 b1 3d 29 3f 88 3d
       -0.13644913 -0.09232226 0.08688645 0.06652672
000390 a1 8a fb 3d 81 42 82 bd 2e 4e 7e 3d b0 47 09 be
       0.12282301 -0.06360341 0.062086277 -0.13406253
0003a0 1f 5d c3 ba f4 c6 12 3e 97 18 ab 3d 20 94 6a 3d
       -0.0014905072 0.14333707 0.083542995 0.05727017
0003b0 c7 c4 2d 3d de e4 7f bd 4a ce b9 bd af 84 e3 bd
       0.04242399 -0.062474124 -0.0907255 -0.11109292
0003c0 b0 d2 8e 39 ff da 91 bb 43 da a2 bb 97 dd 5f 3a
       0.00027241325 -0.004451155 -0.0049698665 0.00085397944
0003d0 23 85 70 3a 9a 84 5e 3b 40 b7 cb ba 82 a5 78 bb
       0.00091751124 0.0033953548 -0.0015542284 -0.0037940447
0003e0 60 eb 9b b9 a6 52 9f b9 6c a1 94 ba e4 d9 c8 ba
       -0.00029739272 -0.0003038842 -0.0011339611 -0.0015323726
0003f0 c8 6a 35 3b 91 7c a5 b8 72 f4 b1 b9 66 ff a8 b8
       0.0027682055 -7.8910154e-05 -0.00033942197 -8.058436e-05

c_fc1.bias f4 [32]
000000 11 1e 58 3e ac 1c 0d be 72 70 aa bd f1 13 fe 3b
       0.2110522 -0.13780469 -0.083222285 0.007753842
000010 c6 e9 7d be 7b e2 8d 3d e6 5c 3f be d5 f8 23 3e
       -0.24796209 0.06927963 -0.18687782 0.1601289
000020 a7 08 72 be 31 df 80 bc ae ed 82 ba 60 5d fc bd
       -0.23636113 -0.015731426 -0.0009989047 -0.12322497
000030 55 38 f0 3a 5b f7 98 3e 60 79 28 3e 85 9b 7e bb
       0.0018327335 0.29876217 0.16452551 -0.003885002
000040 be 2e 85 be 4a bf ce 3c 04 50 cc be 06 bd 86 3d
       -0.26012224 0.025237698 -0.39904797 0.06579022
000050 81 74 e6 bd 65 8f e9 3c bf c1 2d be 77 a0 49 be
       -0.1125269 0.028510759 -0.1696844 -0.19690119
000060 66 b3 b7 bd 46 df fe bc ae 40 ab bd 9f 2a 36 be
       -0.089697644 -0.031112324 -0.08361946 -0.17789696
000070 55 e6 50 3a f2 05 d1 3d 75 d2 ac bd f0 8a 89 bd
       0.00079688925 0.10206212 -0.08438579 -0.06715953

c_bn2.weight f4 [32]
000000 2c 63 92 3f d0 5b 8c 3f a8 d6 6d 3f 8d e6 6b 3f
       1.1436515 1.0965519 0.92905664 0.9214867
000010 dc 2c 8e 3f a6 46 64 3f 0f 99 8a 3f 3a 2f 67 3f
       1.110744 0.891703 1.082796 0.90306437
000020 32 41 8e 3f 56 a5 5d 3f c5 c9 6c 3f 7f fd 6a 3f
       1.1113646 0.8658041 0.92495376 0.91793054
000030 56 84 58 3f 3c 92 92 3f 3f 23 87 3f 5c be 5d 3f
       0.8457693 1.1450877 1.0557631 0.8661859
000040 11 d3 7a 3f fa f4 61 3f 79 cd 8e 3f 93 3f 69 3f
       0.9797831 0.8826443 1.1156455 0.9111263
000050 94 bf 73 3f 66 36 66 3f 32 8c 87 3f 01 c5 8e 3f
       0.952142 0.89926755 1.0589659 1.1153871
000060 35 c7 6f 3f c1 76 52 3f 27 6f 87 3f c3 ff 7e 3f
       0.9366334 0.82212454 1.0580796 0.9960901
000070 3a 6a 60 3f 42 41 69 3f 61 30 5d 3f 07 b1 60 3f
       0.8766209 0.911152 0.86401945 0.8777012

c_bn2.bias f4 [32]
000000 15 fe 37 37 c0 37 f0 37 74 4b 8b 36 57 64 ac b3
       1.0966808e-05 2.863619e-05 4.1513067e-06 -8.027626e-08
000010 b3 83 53 38 72 1e 28 37 50 db 14 38 fc 55 96 37
       5.0428975e-05 1.0020669e-05 3.54902e-05 1.7921433e-05
000020 b0 1b 59 b7 b5 4b 6c b6 ea d4 4f 35 c4 56 bd 36
       -1.2940654e-05 -3.5210808e-06 7.742334e-07 5.64274e-06
000030 76 f5 84 b5 61 ad 8c b7 5e c7 3e 38 a1 f0 85 b5
       -9.906205e-07 -1.6770036e-05 4.5485205e-05 -9.979304e-07
000040 48 6e f2 b7 41 1a f8 b5 0b a5 d6 b7 e9 dc ac b6
       -2.8900002e-05 -1.8485081e-06 -2.5587642e-05 -5.151717e-06
000050 8d ff d1 b5 1e cc 8f b6 00 17 1b b8 a7 3b f6 35
       -1.5646089e-06 -4.2854945e-06 -3.69763e-05 1.8345789e-06
000060 6c fc 20 36 65 56 32 36 dc d9 07 b8 4c 03 05 b7
       2.3988787e-06 2.6574355e-06 -3.2389406e-05 -7.928185e-06
000070 cc 53 5c 35 04 f6 d4 b6 38 70 81 35 35 21 64 36
       8.2078327e-07 -6.3467323e-06 9.643909e-07 3.3993977e-06

c_bn2.running_mean f4 [32]
000000 f3 ce 03 3e eb 73 81 3d cf 93 75 3f 25 13 80 3f
       0.12871914 0.06320938 0.95928663 1.0005842
000010 4e e6 95 3b be d7 72 bf 33 57 e6 3c 65 bb 5f be
       0.0045745736 -0.94860446 0.028117752 -0.21848829
000020 1c 8b da bd a3 d8 79 bf d5 6e 80 bf d6 ba 75 3f
       -0.10671064 -0.97596186 -1.0033823 0.95988214
000030 77 5f 7e 3f f3 d7 c8 3c bb 8c 9d 3d ef d7 81 bf
       0.9936442 0.024517035 0.07692858 -1.0144023
000040 a2 48 52 3e 09 29 7c 3f 9f 25 cb bd 89 c0 73 bf
       0.2053552 0.98500115 -0.09919285 -0.9521566
000050 ed 15 5d 3f 0a 4d 7d bf e7 2d b4 3d 31 ca 1b be
       0.8636158 -0.9894568 0.08797818 -0.15213849
000060 39 3b be 3d 87 87 7f 3f 81 e6 b7 be 92 67 9f bd
       0.092886396 0.99816173 -0.35918048 -0.07783426
000070 95 f1 80 3f 9b ad 73 bf d4 70 76 3f fe 83 78 3f
       1.0073725 -0.95186776 0.9626591 0.97076404

c_bn2.running_var f4 [32]
000000 79 25 4f 3e c3 44 2e 3e 5f ab 64 3f df 9b 7f 3f
       0.20229138 0.17018418 0.8932399 0.99847215
000010 e0 b8 ad 3e fa 9e 64 3f 82 0e 1c 3e 60 96 2c 3e
       0.3393011 0.8930508 0.1523991 0.16854239
000020 f1 da be 3d a2 8a 79 3f 85 f4 7f 3f 88 14 67 3f
       0.093191035 0.9747716 0.9998248 0.90265703
000030 76 c5 7f 3f cd b8 04 3e 54 b2 9f 3d aa 0a 80 3f
       0.99910676 0.12961121 0.07797685 1.0003254
000040 bb 78 6e 3e ca ab 7d 3f ec 51 c0 3e 79 97 6d 3f
       0.23288243 0.99090254 0.375625 0.92809254
000050 99 5b 47 3f 4e 95 7d 3f 78 83 00 3e 40 0d ad 3e
       0.7787414 0.99055946 0.12550151 0.3379917
000060 18 2a c8 3d 42 1a 7f 3f 25 7a 55 3e 59 62 63 3e
       0.09773654 0.9964944 0.20847376 0.22205485
000070 11 d6 7f 3f 31 04 6f 3f 39 2b 6e 3f fa 38 71 3f
       0.99936014 0.9336577 0.930347 0.94227564

c_fc2.weight f4 [1, 32]
000000 c0 78 01 be 95 fe d9 3d 97 d8 ea bb 08 41 a8 3b
       -0.12643719 0.10644261 -0.007166933 0.0051347055
000010 fc 73 e3 3d 05 17 99 3c 27 9b ca 3d f4 53 4b bd
       0.11106107 0.018687734 0.09892874 -0.04964061
000020 ab 82 e7 3d 91 d7 62 bc bd 44 e7 3a 5b 64 4e bc
       0.1130422 -0.01384534 0.0017644387 -0.012597169
000030 ce f6 60 bb 41 06 0c be 11 bd c4 bd 62 53 3b bc
       -0.0034326795 -0.1367426 -0.09606374 -0.011433454
000040 bc 38 80 3d 15 56 ab 3b 09 81 e7 3d 9b 2d 95 3b
       0.06260821 0.0052287676 0.113039084 0.0045525557
000050 09 cb b2 bc 1b ac 18 3c 06 4f 9d 3d 8e f6 e0 3d
       -0.02182533 0.009318377 0.07681088 0.109845266
000060 c6 95 d5 3c 07 6c d2 bb ef 6c 9f 3d 86 2a 62 3d
       0.026072394 -0.0064215693 0.07784449 0.055216335
000070 f0 0b b5 3b b5 04 98 3c 60 72 03 bc 54 60 8a bb
       0.0055251047 0.018556932 -0.008022875 -0.004222909
