markerwisebin/saved_models/binary_classifier_checkpoint_tune.pt (torch, 9088 bytes, 11 tensors)

bn_input.weight f4 [16]
0.9594608 0.79789513 0.75213987 0.79222983 0.8062635 0.91037935 0.7508526 0.89054435
0.9137999 0.80287313 0.81067836 0.80995166 0.75359243 0.84947616 0.799054 0.8346275
00000000: 399f 753f db42 4c3f 3d8c 403f 93cf 4a3f
00000010: 4967 4e3f 9f0e 693f e037 403f b7fa 633f
00000020: caee 693f 1889 4d3f 9e88 4f3f fe58 4f3f
00000030: 6feb 403f 4577 593f ce8e 4c3f 26aa 553f

bn_input.bias f4 [16]
-0.28884757 -0.18502708 -0.029627362 -0.18340108 -0.12169379 -0.29476297 -0.049419887 -0.20331725
-0.23922504 -0.30202827 -0.23060904 -0.24683054 -0.10219396 -0.26022086 0.081363775 -0.16013189
00000000: d4e3 93be bd77 3dbe 15b5 f2bc 7ecd 3bbe
00000010: 983a f9bd 2ceb 96be 826c 4abd 6632 50be
00000020: 69f7 74be 73a3 9abe c724 6cbe 25c1 7cbe
00000030: 114b d1bd ab3b 85be 0da2 a63d 9df9 23be

bn_input.running_mean f4 [16]
0.36472785 0.5040457 0.54727393 0.27157933 0.38731644 0.22373663 0.5713831 0.40010366
0.23890226 0.27564034 0.62303615 0.28591198 0.4319206 0.25750044 0.5113048 0.5385958
00000000: 9cbd ba3e 2409 013f 251a 0c3f 720c 8b3e
00000010: 574e c63e 371b 653e 2a46 123f 63da cc3e
00000020: cba2 743e bb20 8d3e 4c7f 1f3f 0e63 923e
00000030: b224 dd3e 19d7 833e dfe4 023f 6ae1 093f

bn_input.running_var f4 [16]
0.1827418 0.31593755 0.34230176 0.123586826 0.20832387 0.105255656 0.37497997 0.22958991
0.10818122 0.12971805 0.46605396 0.14801751 0.23162115 0.10886057 0.3214783 0.32583213
00000000: ab20 3b3e 91c2 a13e 2d42 af3e 171b fd3d
00000010: da52 553e 4790 d73d 60fd bf3e 9e19 6b3e
00000020: 1e8e dd3d cfd4 043e a09e ee3e e791 173e
00000030: 182e 6d3e 4af2 de3d ce98 a43e 78d3 a63e

fc1.weight f4 [32, 20]
-0.047862265 0.07961236 0.03695059 -0.09603785 0.059405103 -0.09951839 -0.0648381 -0.10007852
-0.096149415 -0.101689026 -0.08000611 -0.0013817957 -0.112107925 -0.13228212 0.05179604 -0.04670474
-0.007921732 0.4291266 0.37991267 -0.16293624 -0.04471322 -0.010369861 -0.018015126 -0.033895258
-0.008666451 -0.041208927 -0.007857772 0.016433649 -0.02270833 -0.0028145094 0.019296689 -0.0066707055
0.011843543 -0.009574091 0.009313647 -0.014141691 0.042720985 -0.019044077 -0.013543022 -0.05007457
-0.14554311 -0.14649078 0.18435942 -0.27390048 -0.20786643 0.07474416 0.21061695 -0.10624277
0.023246821 -0.24860756 -0.24716756 -0.032301527 -0.028663795 0.0064880815 0.04705057 0.014090857
0.013505558 0.21621123 0.2700369 -0.15172228 0.03622445 -0.14847086 0.07253762 -0.13442536
-0.27062622 -0.19641736 -0.10361619 -0.05904145 0.06932887 0.030984161 -0.15767528 -0.21077207
-0.07117263 -0.20431596 -0.0134864105 -0.07596614 -0.01701731 0.2454365 0.11920591 -0.013153181
-0.09316588 0.0046394956 -0.017659066 -0.07954499 -0.011581157 -0.11421454 0.012346633 0.05000648
0.02724814 0.0073977956 0.023192357 -0.0004748283 -0.027362434 -0.022737537 0.02358628 -0.0035601433
0.06417712 -0.048788544 -0.004330589 -0.056745153 -0.005959534 -0.05652387 -0.020400532 -0.08156719
-0.06315122 -0.037219565 -0.033217162 -0.0054890485 -0.10676386 -0.018941846 0.00027816964 -0.08202951
0.00409696 -0.06519629 -0.021009838 -0.053731628 0.052441925 -0.008708397 -0.030175937 -0.057303943
-0.005074506 0.0012561108 -0.007870529 -0.0008115265 0.0006565884 -0.0051989225 -0.0010503704 0.0003639171
0.0031632343 0.0011492107 0.0015785086 0.00462954 -0.0011006431 0.004357247 0.0054835323 -0.000628089
-0.10372027 -0.0038615577 -0.002022298 -0.0037098143 0.008143642 0.0022017977 0.004079838 0.006623424
0.00575701 -0.00050668383 -0.0015405744 -0.00080142636 -0.005989481 0.0045762667 -0.0007168093 -0.008617506
-0.004245796 0.0033211245 -0.0072076856 0.005053757 0.09379561 0.003579919 -0.0004963146 0.009170367
0.06672999 0.024580665 0.0036800157 0.08938058 0.016251784 0.15980633 0.013918513 0.0017285332
0.060380347 0.00045954145 -0.010842253 0.016099693 0.04118948 0.064965025 -0.017232496 0.034050215
-0.045299087 0.0729002 0.009148808 0.074943304 -0.014411723 0.0017988886 -0.036953498 0.06139986
0.0055478527 0.01732058 0.09291912 0.06396053 -0.0006053891 0.002334052 -0.016489744 0.026149536
0.0013190364 0.05092152 -6.149458e-05 -0.010678264 0.010077607 -0.07768522 -0.11815525 0.036990374
0.15023421 0.028504396 -0.06762764 -0.005191389 -0.0011502677 0.15113899 -0.016823743 0.01596944
0.077599116 0.031706925 0.09633919 0.12279178 -0.08744424 0.18810913 0.030564679 0.045716308
0.014556171 -0.20221566 -0.3998107 -0.03091908 -0.015057184 -0.0010946807 -0.0069045275 -0.003006065
-0.0035581796 -0.0037901334 -0.0025419502 0.0044906675 0.0010383257 -0.00011172401 0.0046382174 0.0010595691
-0.002408298 0.003876841 0.0014895357 -0.003190448 -0.11074815 -0.003555186 -0.003713442 -0.0076417304
0.042408332 0.013526368 0.032141317 0.0746091 -0.008763769 0.035963736 0.0021103777 0.04273863
0.04590758 0.042835884 0.012013015 -0.047167365 0.013479417 0.08050603 0.031991653 -0.030644758
00000000: 390b 44bd ce0b a33d 8059 173d 7eaf c4bd
00000010: c452 733d 4cd0 cbbd d6c9 84bd f8f5 ccbd
00000020: fce9 c4bd 5642 d0bd 3eda a3bd 5f1d b5ba
00000030: d798 e5bd f774 07be 1628 543d 784d 3fbd
00000040: 27ca 01bc 7bb6 db3e ea83 c23e c2d8 26be
00000050: 3625 37bd 59e6 29bc 7594 93bc c1d5 0abd
00000060: bbfd 0dbc b1ca 28bd e2bd 00bc dc9f 863c
00000070: d206 babc a273 38bb 1714 9e3c ef95 dabb
00000080: 6b0b 423c a6dc 1cbc 4498 183c 8db2 67bc
00000090: 33fc 2e3d 5302 9cbc 8de3 5dbc fe1a 4dbd
000000a0: 4109 15be ae01 16be b7c8 3c3e af3c 8cbe
000000b0: f0da 54be 7713 993d f8ab 573e cf95 d9bd
000000c0: 1e70 be3c fb92 7ebe 7e19 7dbe 9b4e 04bd
000000d0: 56d0 eabc f999 d43b 19b8 403d 56dd 663c
000000e0: 6a46 5d3c 7a66 5d3e 4742 8a3e 165d 1bbe
000000f0: 1760 143d bf08 18be 9b8e 943d cda6 09be
00000100: 858f 8abe a221 49be ba34 d4bd 73d5 71bd
00000110: 4bfc 8d3d 7fd2 fd3c a175 21be a2d4 57be
00000120: f5c2 91bd 3438 51be 1bf6 5cbc 2394 9bbd
00000130: e367 8bbc b553 7b3e 3a22 f43d 7180 57bc
00000140: c1cd bebd e906 983b bfa9 90bc 7ce8 a2bd
00000150: e5be 3dbc 50e9 e9bd 8849 4a3c 98d3 4c3d
00000160: 7e37 df3c 3569 f23b e6fd bd3c 60f2 f8b9
00000170: 2f27 e0bc 1244 babc 0438 c13c 4b51 69bb
00000180: 4b6f 833d 7fd6 47bd 9de7 8dbb 9b6d 68bd
00000190: 3248 c3bb 9385 67bd 041f a7bc b30c a7bd
000001a0: 6d55 81bd 8b73 18bd b80e 08bd 7add b3bb
000001b0: 03a7 dabd ee2b 9bbc 4cd7 9139 16ff a7bd
000001c0: cb3f 863b a285 85bd d31c acbc b215 5cbd
000001d0: 58cd 563d aaad 0ebc 8733 f7bc 8ab7 6abd
000001e0: 0b48 a6bb 16a4 a43a 64f3 00bc 9fbc 54ba
000001f0: e71e 2c3a b95b aabb 95ac 89ba 20cc be39
00000200: 444e 4f3b 1da1 963a f6e5 ce3a 65b3 973b
00000210: 7443 90ba 3dc7 8e3b 34af b33b 57a6 24ba
00000220: 4b6b d4bd 3012 7dbb 8888 04bb 5b20 73bb
00000230: e96c 053c 094c 103b 29b0 853b 4f09 d93b
00000240: 4da5 bc3b fad2 04ba 19ed c9ba d016 52ba
00000250: 6943 c4bb 82f4 953b 42e8 3bba 7130 0dbc
00000260: 5120 8bbb 39a7 593b 732e ecbb fd99 a53b
00000270: ea17 c03d 139d 6a3b 1c1b 02ba 4f3f 163c
00000280: bca9 883d 645d c93c 6b2c 713b 2a0d b73d
00000290: 7622 853c 45a4 233e 7a0a 643c f38f e23a
000002a0: 6251 773d 9cee f039 b5a3 31bc 81e3 833c
000002b0: 4db6 283d 620c 853d 2a2b 8dbc 3d78 0b3d
000002c0: 898b 39bd b34c 953d e2e4 153c e07b 993d
000002d0: 261f 6cbc afc8 eb3a 8d5c 17bd 6b7e 7b3d
000002e0: c3ca b53b e4e3 8d3c 614c be3d bdfd 823d
000002f0: fab2 1eba e5f6 183b 8015 87bc 8d37 d63c
00000300: 84e3 ac3a 1593 503d a7f6 80b8 e3f3 2ebc
00000310: 8c1c 253c 6e19 9fbd 61fb f1bd 3883 173d
00000320: ffd6 193e 0d82 e93c 5c80 8abd 871c aabb
00000330: 94c4 96ba 2ec4 1a3e f2d1 89bc 58d2 823c
00000340: 49ec 9e3d 1fdf 013d 7b4d c53d 427a fb3d
00000350: f715 b3bd ae9f 403e c762 fa3c 0641 3b3d
00000360: 027d 6e3c 9f11 4fbe fdb3 ccbe 034a fdbc
00000370: 68b2 76bc 647b 8fba 603f e2bb 6701 45bb
00000380: 5930 69bb e363 78bb d996 26bb 7326 933b
00000390: 6e18 883a 5f4d eab8 30fc 973b 3de1 8a3a
000003a0: 89d4 1dbb 9912 7e3b 863c c33a d616 51bb
000003b0: edcf e2bd 20fe 68bb 385d 73bb 7b67 fabb
000003c0: 5cb4 2d3d b39d 5d3c 9da6 033d a8cc 983d
000003d0: e995 0fbc b64e 133d 434e 0a3b b40e 2f3d
000003e0: 9609 3c3d ae74 2f3d 3dd2 443c 9132 41bd
000003f0: c6d8 5c3c 58e0 a43d ae09 033d b70a fbbc

fc1.bias f4 [32]
-0.030433688 -0.026156811 0.2388671 0.0891805 -0.021178318 -0.02419463 -0.0021503577 0.0051068226
0.029610459 -0.081569545 -0.18766217 -0.0056070676 -0.21777512 0.09314377 0.006886241 -0.16803038
-0.020725818 -0.027050283 -0.015346845 -0.120705806 0.19861102 -0.03032455 -0.08975825 0.25398466
-0.02380681 0.052427 -0.16509062 -0.17819 -0.2318409 0.05444315 -0.35936373 -0.10864096
00000000: 1250 f9bc cf46 d6bc 9499 743e 44a4 b63d
00000010: 277e adbc d133 c6bc 04ed 0cbb 2257 a73b
00000020: a291 f23c ef0d a7bd 832a 40be 7ebb b7bb
00000030: 7100 5fbe 29c2 be3d faa5 e13b 2810 2cbe
00000040: 31c9 a9bc 8e98 ddbc 5571 7bbc 9b34 f7bd
00000050: b060 4b3e 316b f8bc 2cd3 b7bd 470a 823e
00000060: 8006 c3bc b2bd 563d 840d 29be 7077 36be
00000070: b367 6dbe c8ff 5e3d 86fe b7be 277f debd

bn2.weight f4 [32]
1.1244718 0.83232915 0.8692232 0.9527144 0.814703 0.8231947 0.819889 0.784539
0.8393899 0.8513534 1.1000462 0.8350815 1.0738741 0.8412603 0.82237744 1.0911372
0.79787654 0.8403659 0.8365845 1.0833619 0.9977479 0.8396617 1.096359 1.0347286
0.86030686 0.846968 1.020541 1.0025196 1.1020453 1.1944029 1.1486936 0.98393095
00000000: b1ee 8f3f 8613 553f 6985 5e3f 17e5 733f
00000010: 6090 503f e3bc 523f 3fe4 513f 8cd7 483f
00000020: 42e2 563f 4cf2 593f 50ce 8c3f e7c7 553f
00000030: b574 893f d65c 573f 5487 523f 62aa 8b3f
00000040: a341 4c3f 3822 573f 672a 563f 9aab 8a3f
00000050: 686c 7f3f 12f4 563f 7e55 8c3f fd71 843f
00000060: 123d 5c3f e5d2 583f 16a1 823f 9052 803f
00000070: d20f 8d3f 32e2 983f 6408 933f e6e2 7b3f

bn2.bias f4 [32]
0.38584948 0.2705864 0.28881583 0.3129682 0.38636556 0.31255108 0.2807136 -0.4408095
-0.27731284 -0.42535558 -0.32183447 0.25482196 -0.3235861 0.30599937 -0.28452155 -0.47912273
0.3514813 0.27371567 0.25966403 -0.36442724 0.29765436 0.29595417 -0.33346462 0.3284506
0.26863822 -0.3753168 -0.28373203 -0.41760242 -0.35114706 -0.36926064 -0.3254357 -0.27943236
00000000: 108e c53e 4d8a 8a3e abdf 933e 5e3d a03e
00000010: b5d1 c53e b206 a03e b1b9 8f3e c8b1 e1be
00000020: f3fb 8dbe 35c8 d9be 7dc7 a4be 0678 823e
00000030: 14ad a5be f3ab 9c3e cfac 91be 934f f5be
00000040: 5bf5 b33e 7624 8c3e aff2 843e 3596 babe
00000050: 2766 983e 4e87 973e e0bb aabe ad2a a83e
00000060: f38a 893e 8629 c0be 5345 91be fccf d5be
00000070: 8cc9 b3be bb0f bdbe 829f a6be c211 8fbe

bn2.running_mean f4 [32]
0.09983306 0.9884974 0.5457122 -0.25889692 1.0167072 0.98360175 -0.99853736 0.99365044
-0.9700767 0.5937312 -0.122314095 -1.0073726 -0.07685545 0.99395823 0.9992812 0.008421097
0.992406 1.0001434 0.999298 -0.06283341 0.27924937 1.0057445 -0.30597886 0.5657821
0.06375195 -0.9912692 0.35677132 0.11556874 -0.027773125 -0.0043053613 0.008795455 0.12099996
00000000: 4675 cc3d 2a0e 7d3f cbb3 0b3f 238e 84be
00000010: 7623 823f 53cd 7b3f 25a0 7fbf e05f 7e3f
00000020: f256 78bf c5fe 173f d07f fabd 96f1 80bf
00000030: 6466 9dbd 0c74 7e3f e5d0 7f3f a4f8 093c
00000040: 520e 7e3f b304 803f fed1 7f3f ceae 80bd
00000050: c6f9 8e3e 3cbc 803f 43a9 9cbe 19d7 103f
00000060: 6290 823d d1c3 7dbf bbaa b63e 4eaf ec3d
00000070: 7784 e3bc fd13 8dbb d01a 103c d4ce f73d

bn2.running_var f4 [32]
0.25564426 0.9855369 0.6037976 0.4038261 0.99316645 0.9732594 0.99983525 0.99896467
0.9655275 0.41181886 0.2909561 0.9994574 0.11252079 0.97582054 0.99811554 0.06417623
0.9926873 0.99011266 0.989372 0.26372772 0.17848888 0.9919946 0.41316146 0.72953457
0.3371955 0.96660995 0.26093054 0.1761078 0.20520751 0.21961875 0.15688334 0.14665122
00000000: cee3 823e 254c 7c3f 7b92 1a3f 4bc2 ce3e
00000010: 2840 7e3f 8727 793f 34f5 7f3f 26bc 7f3f
00000020: cf2c 773f ecd9 d23e 33f8 943e 71dc 7f3f
00000030: 4d71 e63d 60cf 793f 8084 7f3f d46e 833d
00000040: c120 7e3f 0678 7d3f 7c47 7d3f 5207 873e
00000050: cac5 363e 5cf3 7d3f e689 d33e c7c2 3a3f
00000060: e3a4 ac3e c073 773f b098 853e 9a55 343e
00000070: eb21 523e bde3 603e 07a6 203e bd2b 163e

fc2.weight f4 [1, 32]
-0.27871266 -0.18103735 -0.24427429 -0.23630051 -0.14496806 -0.14527974 -0.14677401 0.13989432
0.12305966 0.15652697 0.35735455 -0.17280123 0.30479723 -0.13958971 0.11358885 0.25157547
-0.12670198 -0.1901215 -0.16552515 0.2805458 -0.25148857 -0.16351692 0.30515173 -0.2564187
-0.18460298 0.17084599 0.31464726 0.24278183 0.28558344 0.28437206 0.37158164 0.24707705
00000000: 6db3 8ebe db61 39be 0a23 7abe c3f8 71be
00000010: 8272 14be 36c4 14be ed4b 16be 7540 0f3e
00000020: b406 fc3d 9b48 203e 2df7 b63e cef2 30be
00000030: 620e 9c3e 9bf0 0ebe 45a1 e83d 80ce 803e
00000040: 2abe 01be 36af 42be 6d7f 29be b3a3 8f3e
00000050: 1cc3 80be fb70 27be d93c 9c3e 5049 83be
00000060: 9008 3dbe 40f2 2e3e 7219 a13e cd9b 783e
00000070: fe37 923e 3799 913e f33f be3e c401 7d3e
