markerwisebin/saved_models/binary_classifier_checkpoint_overall.pt (torch, 9142 bytes, 11 tensors)

bn_input.weight f4 [16]
0	0x3f93fe1f	1.1561927
1	0x3f3813ac	0.71905017
2	0x3f4d94e5	0.8030532
3	0x3f79a97e	0.9752425
4	0x3f2b37a9	0.66881806
5	0x3f7d1168	0.98854685
6	0x3f503d0c	0.8134315
7	0x3f26ba13	0.65127677
8	0x3f83ff6c	1.0312324
9	0x3f435b70	0.763114
10	0x3f274e6b	0.6535403
11	0x3f685537	0.9075503
12	0x3f8e5d1f	1.1122168
13	0x3f2d7cb5	0.6776841
14	0x3f1bf5c5	0.6092189
15	0x3f0096b3	0.5022995

bn_input.bias f4 [16]
0	0xbf0c8ae2	-0.5489942
1	0xbed1be76	-0.40965623
2	0xbea1b8ed	-0.315864
3	0xbee65dc5	-0.44993415
4	0x3e83ebff	0.25765988
5	0xbead0dab	-0.3379949
6	0xbf06717a	-0.525169
7	0xbea3d383	-0.31997308
8	0xbeb3891f	-0.35065553
9	0xbef61558	-0.4806316
10	0xbec08be0	-0.37606716
11	0xbe0e0614	-0.13869506
12	0xbebe5175	-0.37171522
13	0xbf19749a	-0.59943545
14	0xbf15ce9e	-0.585184
15	0xbeb08c35	-0.3448197

bn_input.running_mean f4 [16]
0	0x3eb067bc	0.34454143
1	0x3efd6179	0.49488428
2	0x3f0bf00c	0.5466316
3	0x3e88d033	0.26721343
4	0x3ec3250d	0.38114205
5	0x3e5e4646	0.21706495
6	0x3f00bd40	0.5028877
7	0x3eaf88b1	0.34283975
8	0x3e707fd8	0.23486269
9	0x3e9445fc	0.28959644
10	0x3f15aa7d	0.5846327
11	0x3e9041ab	0.281751
12	0x3ee509d0	0.4473405
13	0x3e8249d4	0.2544695
14	0x3f02e258	0.51126623
15	0x3f05c72e	0.5225705

bn_input.running_var f4 [16]
0	0x3d194632	0.03742046
1	0x3d6fbee7	0.058531668
2	0x3d68492c	0.056710407
3	0x3d11e43d	0.035618056
4	0x3d4c7ed3	0.049925637
5	0x3d0cec21	0.034404878
6	0x3d4fb5e1	0.050710563
7	0x3d283c0c	0.04107289
8	0x3d062970	0.03275436
9	0x3d1dd3cd	0.038532067
10	0x3d93faa0	0.07225537
11	0x3d367fc6	0.044555448
12	0x3d39b817	0.045341577
13	0x3cfe3cb3	0.031034803
14	0x3d7d1737	0.061789718
15	0x3d628bcc	0.055309102

fc1.weight f4 [32, 20]
0	0x3eabc585	0.33549133
1	0x3dcefd3d	0.10106895
2	0x3e616f45	0.22015102
3	0x3e93520a	0.28773528
4	0x3dd03dd0	0.1016804
5	0x3e92f7d8	0.28704715
6	0x3e4a14e7	0.19734536
7	0x3dc559fc	0.09636304
8	0x3e9fdb0e	0.31221813
9	0x3d18ef8c	0.037337825
10	0xbda2405f	-0.07922434
11	0x3db2dec2	0.08733894
12	0x3e99641c	0.2995919
13	0x3d824015	0.06359879
14	0xbd916ccb	-0.07100829
15	0x3e0bfce7	0.13670693
16	0xbdaad756	-0.08341853
17	0xbd4375f2	-0.047719903
18	0x3db44bad	0.088034965
19	0x3e0b0d0c	0.13579196
20	0x3dec78ac	0.11546454
21	0x3cfc8b41	0.03082812
22	0x3cb2b25e	0.021813568
23	0xbbfefaf7	-0.007781382
24	0xbe0c3178	-0.13690746
25	0x3d905e1d	0.07049201
26	0x3c9f3018	0.019432113
27	0x3d611967	0.054955866
28	0x3d2efe7e	0.04272317
29	0x3dcde50e	0.10053454
30	0x3dec7d9e	0.11547397
31	0x3b9f1362	0.0048546055
32	0x3d2f7be8	0.042842776
33	0x3d5983d0	0.05310422
34	0x3ddf1763	0.108931325
35	0x3c9cc067	0.019134713
36	0x3cb48358	0.022035286
37	0xbf09ebd3	-0.53875464
38	0xbf24306a	-0.64136374
39	0xbd6059b7	-0.05477306
40	0x3e73ccd5	0.23808606
41	0x3e7ac692	0.24489811
42	0x3ddb4442	0.107063785
43	0x3ec45ae0	0.38350582
44	0x3db20a3a	0.08693357
45	0x3e6477ce	0.22311327
46	0x3e7893c7	0.24275123
47	0x3d26db84	0.04073669
48	0x3e51013c	0.20410627
49	0xbe21e786	-0.15810975
50	0xbdde799f	-0.10863041
51	0xbc68a0a1	-0.014198453
52	0x3ec36cce	0.3816895
53	0xbe0e198f	-0.13876937
54	0x3d641cec	0.055691645
55	0xbe144638	-0.14479911
56	0xbd7b9143	-0.06141783
57	0x3d8e4411	0.069465764
58	0x3e82cc41	0.25546458
59	0x3ec6dfe8	0.38842702
60	0x3ec44de6	0.38340682
61	0x3e94d43a	0.29068166
62	0x3e1ed492	0.15510777
63	0x3ec4a7e0	0.38409328
64	0x3deb5d8e	0.114924535
65	0x3dd023ab	0.10163053
66	0x3e4c023e	0.1992273
67	0xbd4652da	-0.048418857
68	0x3df6905b	0.12039252
69	0xbe69a05c	-0.22815078
70	0xbe1a4fc6	-0.15069494
71	0xbd681e5a	-0.05666957
72	0x3ed11d7b	0.40842804
73	0xbe4b4311	-0.19849803
74	0xbca56303	-0.020188814
75	0xbe22cdda	-0.15898839
76	0xbd372b59	-0.044719074
77	0xbd266be9	-0.040630255
78	0x3e63a19c	0.22229618
79	0x3ea00f7c	0.31261814
80	0x3f0975ff	0.5369567
81	0x3e0bdfb9	0.13659562
82	0x3e40aa86	0.1881505
83	0x3ea1e8be	0.3162288
84	0x3d74ce39	0.05976698
85	0x3ec4193d	0.38300505
86	0x3e9a81f7	0.3017728
87	0x3d603ff2	0.054748483
88	0x3ef168d8	0.47150302
89	0xbd361d1a	-0.044461347
90	0x3e0cbae7	0.13743173
91	0x3ea8b2b9	0.32948855
92	0x3f11f0df	0.57008165
93	0x3df2ab75	0.11849109
94	0x3de2a822	0.11067225
95	0xbe445af2	-0.19175318
96	0xbd5d150c	-0.05397515
97	0x3cb7081d	0.022342736
98	0xbc30ae8b	-0.010783802
99	0x3e9449fc	0.28962696
100	0xbb9c21c9	-0.0047647697
101	0xbd4cf758	-0.050040573
102	0xba86673b	-0.0010254154
103	0x3c5e545a	0.013569916
104	0x3c8c8c3d	0.017156715
105	0x3d9b1138	0.075716436
106	0xbd2a259a	-0.041539766
107	0xbd726b25	-0.059184212
108	0x3d2d1016	0.04225167
109	0x3d87a299	0.0662281
110	0xbc642f09	-0.01392723
111	0xbd09d0b9	-0.03364632
112	0xbacfe618	-0.001586142
113	0x3cfeb5dc	0.031092577
114	0x3c6cbdac	0.014449518
115	0x3d117ccb	0.035519402
116	0x3e1e7a9a	0.15476456
117	0x3a19bf78	0.0005865018
118	0x3d06dc56	0.032924972
119	0x3d342f96	0.043990694
120	0x3c2c3958	0.010511719
121	0xbabd1db8	-0.0014428413
122	0x3b46bb1d	0.003032393
123	0xbbc16a19	-0.0059025404
124	0xbb95a54f	-0.0045668255
125	0x3b9f5568	0.004862476
126	0xbd055146	-0.03254821
127	0xbc95acab	-0.018270811
128	0xbcb473bc	-0.022027843
129	0x3bf65f72	0.007518702
130	0xb9bd3dd9	-0.0003609497
131	0xbc55cf4e	-0.013049914
132	0x3ced578c	0.02897241
133	0xbcc9b413	-0.024621999
134	0xbb1f0ce4	-0.0024269158
135	0xbcf55c26	-0.029951166
136	0x3db560c2	0.08856346
137	0x3b950c92	0.0045486176
138	0xbc05a9c8	-0.008158155
139	0xbba2164d	-0.004946506
140	0xbe781901	-0.24228288
141	0xbe1dcf09	-0.15411009
142	0xbea2f57f	-0.31827924
143	0xbe62778f	-0.2211592
144	0x3e176fd4	0.14788753
145	0xbee5dce5	-0.44895092
146	0xbea76a98	-0.32698512
147	0xbe55f023	-0.20892386
148	0xbec7aa7b	-0.38997254
149	0xbe66c6c5	-0.22536762
150	0x3cf10f56	0.029426258
151	0xbf040287	-0.51566356
152	0xbdbe1eb4	-0.092832
153	0xbe873248	-0.2640555
154	0xbe1cb498	-0.15303266
155	0x3cb083ea	0.021547277
156	0x3cdf4a63	0.02725715
157	0x3e1264ed	0.14296313
158	0x3ed1190a	0.40839416
159	0x3dc72762	0.097243086
160	0x3d6926ad	0.05692165
161	0x3d9a4012	0.07531752
162	0x3d2c945a	0.042133667
163	0xbc90a699	-0.017657565
164	0xbd75d013	-0.06001289
165	0x3d1a202d	0.03762834
166	0xbd08540d	-0.033283282
167	0x3b706ecd	0.0036687136
168	0x3d5a0b26	0.05323329
169	0x3cde567f	0.027140854
170	0x3da27efb	0.07934376
171	0xbc4ec0e6	-0.012619233
172	0x3c7e87e1	0.015535326
173	0x3d351180	0.044206142
174	0x3cb4ef8d	0.022086883
175	0x3d2fdd53	0.04293568
176	0x3c7f6655	0.015588363
177	0xbea4f4b5	-0.32217947
178	0xbeb6c0cc	-0.35693967
179	0x3c9f7b1f	0.019467888
180	0xbdb58631	-0.088634856
181	0xbd227f9a	-0.03967247
182	0xbc3ba1a6	-0.011452114
183	0xbda0cb69	-0.078512974
184	0x3e335349	0.1751224
185	0x3d289e40	0.041166544
186	0xbc10b250	-0.0088315755
187	0x3d5b60f9	0.053559277
188	0x3c836cb3	0.016043043
189	0x3d16d93c	0.036828265
190	0xbe0737b9	-0.1320485
191	0x3d80ae86	0.06283288
192	0x3bbd7c3f	0.0057826336
193	0xbd96b508	-0.07358748
194	0xbd0fd08d	-0.035111
195	0x39a372d6	0.00031175342
196	0xbcd327bc	-0.025775783
197	0x3eca01ae	0.39454406
198	0x3ee95067	0.45569155
199	0xbd3d30e5	-0.046189208
200	0x3e95f154	0.2928568
201	0x3cbf5f2b	0.02336081
202	0xbc8be5e3	-0.017077392
203	0x3d48e50e	0.04904657
204	0xbdc4c27b	-0.09607407
205	0xbd923e55	-0.07140795
206	0xbd49a1c1	-0.049226526
207	0x3d0468c6	0.032326482
208	0xba8cfc8a	-0.0010756415
209	0x3d09b6e9	0.033621702
210	0x3d333fca	0.043762006
211	0xbde42bf9	-0.111411996
212	0xbc978b7f	-0.018499134
213	0x3d32ceb1	0.043654148
214	0x3c47a2ee	0.012184842
215	0xbbcd48e7	-0.006264794
216	0x3cbe1a55	0.023205915
217	0xbf2c6406	-0.67340124
218	0xbf330524	-0.6992972
219	0xbe62cdae	-0.22148773
220	0x3d8620f1	0.06549252
221	0x3d1cf2a4	0.038317338
222	0x3d58ecf8	0.052960366
223	0xbd9e7b8f	-0.07738411
224	0xbd35fb4b	-0.044429105
225	0x3d3a55c7	0.04549196
226	0x3c68391c	0.014173772
227	0x3b98b6ef	0.0046604793
228	0x3c115cec	0.008872252
229	0x3d0bd4c1	0.034138445
230	0x3d4d2b51	0.050090138
231	0x3cab72a6	0.020928692
232	0x3cdd5998	0.02702026
233	0xbbc765d5	-0.0060851374
234	0x3c757b01	0.01498294
235	0x3ce8fe0b	0.02844145
236	0x3c2ab23f	0.010418474
237	0xbe8ecb4e	-0.27889484
238	0xbe9175b3	-0.2841011
239	0x3d2825c7	0.041051652
240	0xbca14ff7	-0.01969145
241	0xbcdc9211	-0.026925119
242	0xbe7c01ed	-0.2461011
243	0x3db59eeb	0.08868202
244	0x3dc0b94a	0.09410341
245	0x3d066c5f	0.032818194
246	0xbe0e7cd8	-0.13914812
247	0xbd8019ab	-0.06254896
248	0xbdc525fe	-0.09626387
249	0x3dcd28f6	0.10017578
250	0x3d8cfe7a	0.06884475
251	0xbbfdbb0e	-0.007743246
252	0xbe219d47	-0.15782653
253	0xbd659cdb	-0.056057792
254	0xbe235212	-0.15949276
255	0xbde707bc	-0.11280772

fc1.bias f4 [32]
0	0xbd0e34ff	-0.03471851
1	0xbf0af58d	-0.5428093
2	0x3e467c45	0.19383343
3	0x3de701d2	0.11279644
4	0xbcdbd48b	-0.026834747
5	0xbcc65161	-0.024208726
6	0x3c62afdc	0.013835873
7	0x3e877134	0.26453555
8	0xbef3d5b7	-0.4762399
9	0x3ee9e649	0.45683506
10	0xbf06a28c	-0.52591777
11	0xbee78abc	-0.45223033
12	0x3d7ab898	0.0612112
13	0x3b193f7b	0.0023383785
14	0x3debe5c7	0.11518436
15	0xbb96aa3d	-0.0045979307
16	0xbbb77d54	-0.005599657
17	0xbf0ef097	-0.5583586
18	0xbebbcf98	-0.3668182
19	0xbe7987bc	-0.24368185
20	0xbbbae75e	-0.0057038506
21	0xbe1f87a9	-0.15579094
22	0x3c9217e5	0.01783366
23	0x3b9e9d27	0.0048405114
24	0x3de5f4f8	0.11228365
25	0x3ba8fc9a	0.0051570656
26	0x3e121206	0.14264688
27	0xbb13dafe	-0.002256095
28	0x3ee54d6c	0.4478563
29	0x3a32266b	0.0006795886
30	0x3ee9bf6f	0.45653865
31	0xbb5ed7c7	-0.0034003125

bn2.weight f4 [32]
0	0x3f077364	0.5291045
1	0x3fcc7b38	1.5975103
2	0x3f3d0d91	0.73848826
3	0x3f4bc6d8	0.79600286
4	0x3f905dbf	1.1278609
5	0x3f328b68	0.6974397
6	0x3ef512eb	0.47865996
7	0x3f9cdba2	1.2254527
8	0x3f99740b	1.1988539
9	0x3f975e07	1.182557
10	0x3fbc9558	1.4733076
11	0x3f8e76bb	1.1129984
12	0x3f456ec4	0.7712214
13	0x3f38eb25	0.722338
14	0x3f4abee8	0.7919755
15	0x3f3933d9	0.7234474
16	0x3f3bb3c0	0.7332115
17	0x3f9c9fa9	1.2236224
18	0x3f95784e	1.1677339
19	0x3fa5c753	1.2951454
20	0x3f3a676b	0.72814053
21	0x3f4d0230	0.8008146
22	0x3f3be632	0.73398125
23	0x3f3cbe06	0.7372745
24	0x3f684bbc	0.9074056
25	0x3f41eacb	0.7574889
26	0x3f4bbc7f	0.795845
27	0x3f303036	0.68823564
28	0x3f91cc42	1.139046
29	0x3f3c6810	0.73596287
30	0x3f934dbc	1.1508098
31	0x3f431728	0.7620721

bn2.bias f4 [32]
0	0xbeeb075e	-0.45904058
1	0xbef484d3	-0.47757587
2	0xbec520b1	-0.38501504
3	0xbed2c7c5	-0.41168037
4	0xbeef8c59	-0.46786764
5	0xbeccac46	-0.39975184
6	0x3ea67c8d	0.325169
7	0x3ef4a007	0.4777834
8	0xbeecaa9a	-0.4622391
9	0x3f049043	0.51782626
10	0xbee44a40	-0.44587898
11	0xbebdb200	-0.37049866
12	0x3eac1ba7	0.33614847
13	0xbec26f18	-0.37975383
14	0xbed709f7	-0.4199979
15	0x3ebf189b	0.3732346
16	0x3ecff833	0.40619048
17	0xbeee6bb4	-0.46566546
18	0xbeea91c8	-0.45814347
19	0xbee28140	-0.44239235
20	0x3ec0805b	0.37597927
21	0xbebacb72	-0.3648334
22	0xbed2c34d	-0.41164628
23	0xbed7c8d1	-0.42145398
24	0x3ecb1a38	0.3966844
25	0xbebd6ccf	-0.36997077
26	0xbecca5a5	-0.39970127
27	0x3ee21a31	0.44160607
28	0x3ec812ad	0.39076748
29	0x3ec3bbde	0.3822927
30	0x3ee6d14b	0.45081553
31	0xbeb19302	-0.3468247

bn2.running_mean f4 [32]
0	0xbf36a528	-0.7134576
1	0xbb3e17ec	-0.0029005958
2	0xbf6bc7e1	-0.92101866
3	0xbf6ef9af	-0.93349737
4	0xbf595496	-0.8489469
5	0x3f7f303c	0.99682975
6	0x3f800a48	1.0003138
7	0x3f60e3cc	0.8784759
8	0x3ea2201c	0.31665123
9	0xbde8b7cc	-0.113631815
10	0xbe963f28	-0.2934506
11	0x3e5ff6d6	0.21871504
12	0x3f7ffadd	0.9999216
13	0x3f7ef43f	0.9959144
14	0xbf6b89b9	-0.92007023
15	0xbf8069cf	-1.003229
16	0xbf808a60	-1.0042229
17	0xbf5c202c	-0.8598659
18	0xbf507a62	-0.8143674
19	0xbddaa177	-0.10675328
20	0xbf7efacb	-0.9960143
21	0x3eca8f2f	0.39562365
22	0x3f801862	1.0007441
23	0x3f7f5f26	0.9975456
24	0x3f5dfe1f	0.86715883
25	0x3f7ffe25	0.9999717
26	0xbf6f12f5	-0.933883
27	0xbf804903	-1.0022281
28	0xbe2474f6	-0.16060242
29	0xbf7e8736	-0.99425066
30	0xbe127137	-0.14301
31	0x3f7f6125	0.99757606

bn2.running_var f4 [32]
0	0x3e849a7a	0.25899106
1	0x3e328317	0.1743282
2	0x3e1bdbe6	0.15220603
3	0x3e0cc345	0.13746364
4	0x3e98514d	0.29749528
5	0x3de93deb	0.11388763
6	0x3de1c79f	0.11024403
7	0x3e834e0b	0.2564548
8	0x3da6934a	0.08133562
9	0x3deb12d0	0.114781976
10	0x3e2b8546	0.16750059
11	0x3d9a3ab2	0.075307265
12	0x3de391f6	0.11111824
13	0x3deab3a0	0.11460042
14	0x3e29e426	0.16590938
15	0x3ddd926e	0.10818945
16	0x3ddbc558	0.10731
17	0x3e88cc0d	0.26718178
18	0x3e917328	0.2840817
19	0x3e1801f7	0.148445
20	0x3deaae98	0.11459082
21	0x3eadd4f4	0.33951533
22	0x3de24bc1	0.11049605
23	0x3de7dd74	0.11321536
24	0x3e83c4ac	0.25735986
25	0x3de3a064	0.111145765
26	0x3e1c45d9	0.1526102
27	0x3ddf70af	0.109101646
28	0x3d7e956e	0.062154226
29	0x3dedbc3d	0.11608169
30	0x3d9d694c	0.076860994
31	0x3de7ca3b	0.11317869

fc2.weight f4 [1, 32]
0	0x3dfb8147	0.12280517
1	0x3eec820e	0.46192974
2	0x3e74d063	0.23907618
3	0x3e5f3f5a	0.2180151
4	0x3ebd499b	0.3697022
5	0x3e22683e	0.15860078
6	0xbd4e50fe	-0.05037021
7	0xbeb45b7e	-0.35226053
8	0x3ed2a9c0	0.41145134
9	0xbec039ee	-0.37544197
10	0x3f0722e6	0.52787626
11	0x3edadeb4	0.42748034
12	0xbe0ce968	-0.13760912
13	0x3e008978	0.1255244
14	0x3e7008a3	0.23440795
15	0xbe1fd54c	-0.1560871
16	0xbe340b35	-0.175824
17	0x3ec77b0e	0.3896107
18	0x3eb82f69	0.3597367
19	0x3edd0d70	0.43174314
20	0xbe019b26	-0.1265684
21	0x3e7ff4a4	0.24995667
22	0x3e19477c	0.14968675
23	0x3e2f5445	0.1712199
24	0xbebd5f0e	-0.36986583
25	0x3e716bc8	0.23576272
26	0x3e80a247	0.25123808
27	0xbe37b845	-0.17941387
28	0xbee2774f	-0.4423165
29	0xbe5f5034	-0.21807939
30	0xbec86ebf	-0.39146993
31	0x3e36ec87	0.17863666
