markerwisebin/saved_models/sup_checkpoint_overall.pt (torch, 6958 bytes, 11 tensors)

c_bn_input.weight f4 [16]
000000 9f 7c 5e 3f dc 53 5d 3f 52 3b 3d 3f 8a 11 65 3f
       0.86908907 0.86456084 0.7391864 0.8947989
000010 d4 05 51 3f 32 19 67 3f 59 49 5a 3f ec 99 4f 3f
       0.8164952 0.9027282 0.8526817 0.8109424
000020 b3 32 64 3f 6f 30 56 3f c2 44 46 3f 54 46 5e 3f
       0.8913986 0.83667654 0.77448666 0.8682606
000030 a4 84 51 3f 72 2c 4f 3f a4 70 3e 3f 95 ea 4b 3f
       0.8184302 0.80927193 0.74390626 0.7965482

c_bn_input.bias f4 [16]
000000 b4 dc cb be 2a a9 ad be a2 b8 a5 be e5 a2 b1 be
       -0.3981682 -0.33918124 -0.32367426 -0.3469459
000010 18 c2 58 be c1 ca cf be e4 4f b5 be 3b 0c d9 bd
       -0.21167791 -0.40584376 -0.35412514 -0.10598036
000020 c7 33 b3 be ec 3f a5 be 91 97 aa bd db ca c5 be
       -0.3500044 -0.3227533 -0.0832969 -0.3863133
000030 97 28 b1 be e3 4e 61 be 11 48 75 be 6b 9d 9f be
       -0.3460128 -0.22002749 -0.23953272 -0.31174788

c_bn_input.running_mean f4 [16]
000000 77 b7 ad 3e 0c 87 fd 3e 9f a7 0c 3f 08 57 89 3e
       0.33929035 0.49517095 0.5494327 0.26824212
000010 2f d5 bf 3e 63 62 5f 3e 40 65 ff 3e 55 ae b0 3e
       0.37467334 0.21814875 0.49881935 0.34508005
000020 02 d6 70 3e 3f 3d 92 3e b8 c0 14 3f 9a 11 8f 3e
       0.23519138 0.28562352 0.58106565 0.27943116
000030 e1 6f e6 3e 84 33 81 3e b8 77 04 3f c2 7c 07 3f
       0.45007232 0.25234616 0.51745176 0.5292474

c_bn_input.running_var f4 [16]
000000 e8 80 26 3e 71 47 9a 3e d2 44 ae 3e 57 c8 fb 3d
       0.16260111 0.3013263 0.3403688 0.12294071
000010 51 ec 51 3e 01 a2 d3 3d 5c ae 96 3e 79 d9 2c 3e
       0.20500304 0.10333634 0.294299 0.16879834
000020 4d e1 d8 3d 47 b4 0c 3e 88 75 ce 3e ab 45 14 3e
       0.10589848 0.13740645 0.40324044 0.14479701
000030 d9 13 7a 3e ba 53 dc 3d a1 8b a4 3e 2f 03 a4 3e
       0.24421634 0.10758157 0.32137778 0.3203368

c_fc1.weight f4 [16, 20]
000000 80 94 09 bc 5b a0 c4 bc b7 20 df bc e9 67 b6 3c
       -0.008397222 -0.024002245 -0.02723728 0.022266345
000010 44 b0 93 3d 27 07 b4 3d b6 9d ba bd a3 a0 84 3d
       0.072113544 0.08790427 -0.09112112 0.064759515
000020 d0 51 b3 3c 23 1f 57 3d 14 5b 83 bd 93 10 08 bd
       0.021889597 0.05251993 -0.06413856 -0.03321893
000030 9b c8 5b bd 2e 1b f5 39 4e b8 63 bd a8 7d 57 3d
       -0.05365811 0.00046750292 -0.05559569 0.05261007
000040 35 91 6a 3c 4a f2 07 3d f4 2c 28 3e 93 ce b1 3d
       0.014316847 0.03319005 0.16423398 0.08681979
000050 af 4c c1 3b 93 63 8c 3b 61 1c da 3c 47 10 d7 3c
       0.005899034 0.004284331 0.02662486 0.026252879
000060 e5 ff 12 ba f8 bb 76 3c 32 51 b7 3a 37 11 f7 3c
       -0.0005607589 0.015059464 0.001398599 0.030159576
000070 15 eb 2e bd 09 53 94 3b 60 68 df 38 9a 5f 5c 3a
       -0.04270466 0.0045265 0.0001065291 0.000840658
000080 d7 0a bd bb b6 e8 3e bc b1 3b e2 bb 58 ad 83 3c
       -0.0057691145 -0.011652162 -0.0069040884 0.016073868
000090 a5 49 37 3e 24 46 40 bc a0 fb 44 3d 0c d8 8f 3d
       0.17899187 -0.011735473 0.04809153 0.070236295
0000a0 b4 a9 b3 bd f6 24 cc bc 7f b9 97 3b 88 18 f4 3c
       -0.08772603 -0.024919968 0.004630267 0.029796854
0000b0 66 8a b2 bd 6f cc a3 bd 3e 8c 3c bd 77 11 ad bd
       -0.08717804 -0.07997977 -0.046032183 -0.08450597
0000c0 48 09 83 bc 37 92 4b bd 4e 4b 00 be 03 ec 2b be
       -0.015995637 -0.04969999 -0.12528726 -0.1678925
0000d0 ed 29 df 3c 62 a3 b5 3c 4a 57 cd 3d 20 1e a9 bd
       0.027241671 0.022172634 0.10026415 -0.08257699
0000e0 68 ae be bb a6 14 d4 3e bb 8e 94 3e 51 0e dc bd
       -0.0058191307 0.41422004 0.29015145 -0.10744918
0000f0 b3 69 b7 be 64 39 c4 bd 9c f5 f8 bd 76 30 67 3d
       -0.3582283 -0.09581259 -0.12156221 0.0564427
000100 40 c9 85 be e3 fb 46 be d9 91 94 3e 91 d9 80 bd
       -0.26130104 -0.19432025 0.29017523 -0.062914975
000110 05 84 23 be 52 45 90 3d d7 d2 cd 3d 1a e7 e3 bc
       -0.1596833 0.07044472 0.1004998 -0.027820159
000120 a3 ba 1d be c7 68 26 3e da b8 e0 bd d0 d8 02 be
       -0.15403228 0.16250907 -0.10972758 -0.1277802
000130 36 fb 88 3d ec 53 da bc e0 1a 4d bd e3 f4 07 bd
       0.0668854 -0.026651345 -0.050074458 -0.033192527
000140 71 e5 51 3c 1d 99 83 bc 34 20 b5 3c ba 61 34 bc
       0.012811051 -0.016064221 0.022110082 -0.011009628
000150 c3 b8 28 3d d7 53 bd 3b fe 05 a0 bc 0e ca 9d 3c
       0.041191828 0.0057778168 -0.019534107 0.019261386
000160 75 86 02 bd aa 61 6c 3c 0a 34 de 3c 72 5d 9a bc
       -0.03186651 0.014427582 0.027124424 -0.018843386
000170 40 c2 19 3c 4f 6a bd 3c 97 ec f0 b9 eb 27 f3 3c
       0.009384692 0.023121981 -0.0004595264 0.02968212
000180 71 1c 04 be 46 22 e1 bc 42 18 4d 3c cc 78 22 bd
       -0.12901475 -0.027482163 0.012517991 -0.039665982
000190 f9 cf 10 bd 93 fa 3c 3c 95 49 a1 3d ff 35 18 3d
       -0.03535459 0.011534351 0.07875363 0.03716087
0001a0 5a 92 6c bd c4 e6 07 3d c3 5a fe 3b 78 49 fd ba
       -0.05775676 0.03317906 0.0077622845 -0.0019324264
0001b0 79 03 61 3d 11 cd 96 3d 4d 6f 25 3d 72 85 ed bc
       0.054934952 0.07363332 0.040389348 -0.028994296
0001c0 15 27 99 bd 6b 3b 01 bc 6b b8 b8 3d 7e 41 bb 3c
       -0.074781574 -0.0078877015 0.0901955 0.022858378
0001d0 8e 94 02 3d 6d 4d ef 3d 89 93 07 be 6c 5c 16 be
       0.031879954 0.1168469 -0.13239874 -0.14683694
0001e0 93 37 94 bb 80 e8 af ba 0a d5 7b bc 21 16 bc 3b
       -0.0045232265 -0.0013420731 -0.015370617 0.0057399427
0001f0 87 08 5c bb df ba 25 bb f9 96 df 3b 9c dc 90 3b
       -0.0033574419 -0.0025288386 0.0068234173 0.00442083
000200 2f 9f a7 3a 36 05 3d bc 34 f1 91 3a f9 f6 a9 bb
       0.0012788529 -0.011536887 0.0011134506 -0.005186912
000210 97 f7 8e 3b d0 5d 56 bc 4f 16 5c bc c6 7b 13 bc
       0.004363011 -0.01308389 -0.013433053 -0.009001678
000220 75 35 1e 3e 31 0d 6d 3b d4 95 53 3c 7a 47 83 3c
       0.1545008 0.0036171193 0.01291414 0.016025294
000230 48 db 41 bd 3e da 91 bd 00 50 b9 3d 5a a3 f7 bc
       -0.047328264 -0.071217045 0.09048462 -0.03022926
000240 a1 a8 8b bd 23 6d b0 3b 66 c6 da 3c 3f 63 40 bd
       -0.06819273 0.005384104 0.026705932 -0.04696965
000250 44 7e 1f 3d 20 56 fb bc 6b 3c 4c 3c 02 b9 1a 3d
       0.038938776 -0.030680716 0.012465577 0.037774093
000260 f5 d5 f5 3c 6f 11 12 bd de 2b 0d 3d d7 8f 6f 3c
       0.03000925 -0.035661157 0.034465663 0.014621696
000270 cc e4 3e 3d e3 77 54 3d 51 35 07 be 88 27 12 be
       0.046604916 0.051872145 -0.13203932 -0.14272892
000280 16 16 ed bd 98 a3 89 3b dd a2 ad 3c 69 d8 22 be
       -0.11576478 0.00420041 0.021195823 -0.15902866
000290 3b 7b 1f be 03 a2 17 be 25 e2 61 3c 87 c3 bf bd
       -0.15574352 -0.14807896 0.013786827 -0.09363466
0002a0 df fe 14 3d 38 8e 56 bd c6 e4 81 3d cd 85 9e 3b
       0.036375877 -0.052381724 0.06342463 0.0048377276
0002b0 d9 d4 a5 bc 93 dd b4 3c 94 83 aa 3d 99 23 f5 bc
       -0.020243095 0.022078311 0.08325878 -0.0299242
0002c0 74 26 e6 3c ab 2b 70 3d fb 0f 62 be aa 8c 67 be
       0.028094508 0.058635395 -0.22076409 -0.22612253
0002d0 fa c9 f8 3d e2 e6 6b bc 1b b2 51 bd 8d 86 9a 3d
       0.12147899 -0.0143983085 -0.051195245 0.07545195
0002e0 79 27 ef 3d eb db c1 3d 96 83 04 bc a8 f0 65 3d
       0.11677451 0.09465774 -0.008088013 0.05613771
0002f0 a3 76 9e bc ee d5 95 bd d2 74 24 bd 00 9f 4b bd
       -0.01934368 -0.073161945 -0.04015047 -0.04971218
000300 bc 21 73 3d 81 c0 18 bd 1c cb 85 bd 42 36 91 3c
       0.059358343 -0.03729296 -0.06532881 0.017726067
000310 db 1e 06 bd 5c b4 f1 bd 45 e4 64 3e c7 11 64 3e
       -0.03274427 -0.11801979 0.22352703 0.22272407
000320 b4 1b f7 3a c8 ea c6 bb ef ba 8d 3c b9 b4 05 bd
       0.0018852861 -0.0060704686 0.017301051 -0.032643054
000330 c4 9f 13 bc 44 36 92 3c 40 8c 1f bd 41 b5 3e bc
       -0.009010259 0.017848141 -0.038952112 -0.011639894
000340 34 a2 ef 3c 7e 02 6d 3c 58 81 8d 3b 25 1f 01 3d
       0.02925215 0.014465926 0.0043183975 0.031523842
000350 d8 e0 82 bc 9f ef 78 bc c3 57 45 3c 97 c3 98 3c
       -0.015976354 -0.015193849 0.01204485 0.018647952
000360 1e 61 19 3d e0 19 4c 37 9c 6b ad bd 18 05 5c bd
       0.037446134 1.2165372e-05 -0.084677905 -0.053715795
000370 ee c1 98 bb 8a c7 c5 bc 07 b4 55 3d d3 40 d9 bb
       -0.00466179 -0.024143 0.05217364 -0.006630042
000380 5b 63 cf 3b d1 0d 07 3d 76 79 62 bc db e0 d1 3c
       0.0063289828 0.03297216 -0.013822904 0.025619915
000390 8e e3 75 3c a9 5b ef 3a 2e ef 25 3c a4 78 52 bc
       0.015007867 0.001826157 0.010127826 -0.012846146
0003a0 36 f1 2b 3d 0f a7 88 bc 92 4b 05 bd c5 40 8c 3c
       0.041978084 -0.016681222 -0.032542773 0.017120728
0003b0 3c 99 71 3b 5e 2d 90 3e c9 7a 8a 3e d7 57 a4 bd
       0.0036865016 0.28159612 0.27046803 -0.080245666
0003c0 d0 10 ad bd cb a6 4f be ab 15 92 3d 6e 56 a5 be
       -0.08450472 -0.2027847 0.07133039 -0.32292503
0003d0 bd 23 f8 bd d4 85 39 be 7b 1e c8 bd 84 fc a4 bc
       -0.121161915 -0.18117458 -0.09771439 -0.02013994
0003e0 f0 63 22 be fa 41 e5 bd fb 47 a8 3c ca c4 9b be
       -0.15858436 -0.11194225 0.020542135 -0.30423576
0003f0 10 7f 3b be d4 55 2b be cc d5 a8 bd bc 8a ee bd
       -0.18310189 -0.1673196 -0.082439035 -0.11647555

c_fc1.bias f4 [16]
000000 3a 79 1c 3e f2 b7 3a 3d a6 c1 76 3e e1 44 43 be
       0.1528062 0.04558558 0.24097309 -0.19069244
000010 95 21 02 bd c6 5f 99 bd b3 90 ba 3b 65 cd d0 bd
       -0.031770308 -0.074889705 0.005693519 -0.10195426
000020 4b 5e 14 be 97 4c 37 3e 98 38 92 bd 33 ca 6e 3e
       -0.14489095 0.1790031 -0.07139701 0.2331932
000030 e7 e1 66 3e 0e e5 37 3e cd 43 3f 3d b9 e2 a9 3e
       0.22547112 0.17958471 0.04669552 0.33180788

c_bn2.weight f4 [16]
000000 9b 3b 6a 3f d5 9b 6b 3f 82 bc 90 3f 30 01 56 3f
       0.914972 0.92034656 1.1307528 0.8359556
000010 a3 38 64 3f bd d4 69 3f 98 33 69 3f fe 9d 6b 3f
       0.8914892 0.9134024 0.9109435 0.9203795
000020 c1 3c 5d 3f 29 f5 4e 3f 4c 6b 62 3f b3 75 80 3f
       0.8642083 0.80842835 0.8844497 1.0035919
000030 ff 4f 88 3f 8b c4 64 3f 56 90 5e 3f c6 c3 a6 3f
       1.0649413 0.893624 0.8693899 1.3028495

c_bn2.bias f4 [16]
000000 9b e6 1d 39 f5 26 ce b8 6f 4c 97 39 14 2e 1e 39
       0.00015058594 -9.830102e-05 0.00028857912 0.0001508522
000010 6c a0 a5 b8 80 5f 0e 39 a3 d6 18 39 54 dd 1e b9
       -7.897694e-05 0.00013577752 0.00014575808 -0.00015150505
000020 c1 b8 44 39 c1 f6 f5 b8 fa b8 11 b9 01 dd af 38
       0.00018760843 -0.00011728472 -0.00013897187 8.3858155e-05
000030 48 fd d9 b8 71 e2 1c b9 e4 40 34 39 d0 ca 65 39
       -0.00010394544 -0.00014961675 0.00017190311 0.00021914695

c_bn2.running_mean f4 [16]
000000 98 4d bd be ce 22 7e 3f 3d a7 a6 be f2 17 76 3f
       -0.36973262 0.9927186 -0.32549468 0.9613029
000010 9e b0 7e bf 75 c9 74 3f ce 47 7e 3f 6c a2 78 3f
       -0.99488246 0.956199 0.99328315 0.97122836
000020 c5 05 74 3f 01 89 69 bf 95 80 7d 3f 23 2c 36 be
       0.95321304 -0.91224676 0.99024326 -0.17790274
000030 26 60 7c 3e 88 d7 67 bf f5 f3 7e bf 72 7a 0b be
       0.24646053 -0.9056325 -0.99591 -0.13620928

c_bn2.running_var f4 [16]
000000 35 54 a6 3d f7 9e f0 3d d9 a0 05 3e b5 74 f0 3d
       0.0812153 0.1174907 0.1304964 0.1174101
000010 76 73 ec 3d 86 96 e2 3d 63 c2 ef 3d 16 f4 dd 3d
       0.1154546 0.11063866 0.11706998 0.10837571
000020 5c fa dc 3d 3a 2c d5 3d f1 26 e7 3d 20 13 26 3d
       0.1078994 0.10408826 0.11286724 0.040545583
000030 80 ad 98 3e eb a3 d2 3d 93 fc e0 3d 0e ff c0 3d
       0.2981987 0.10285171 0.10985675 0.09423648

c_fc2.weight f4 [1, 16]
000000 1b a9 9c bc de b1 24 3d d7 1a 30 be 90 06 a0 bc
       -0.019123605 0.04020869 -0.17197739 -0.01953438
000010 4a cd a4 3c cc d6 f7 bc 57 ea 6e 3c 78 a9 84 b8
       0.02011742 -0.03025379 0.014582238 -6.3258165e-05
000020 c7 17 84 bc 23 cd 46 3b e5 36 ba bc 83 fa e1 bd
       -0.01612462 0.0030334673 -0.022731254 -0.110341094
000030 3a 58 02 be bc b8 06 3d f8 11 81 3b 51 42 95 be
       -0.12728968 0.03289102 0.0039389096 -0.29152158
