markerwisebin/sup_checkpoint_overall.pt (torch, 8622 bytes, 11 tensors)

c_bn_input.weight f4 [16]
000000 9c 64 4f 3f e3 8f b4 3e ae 9d d2 3e 6b 7a 12 3f
       0.8101289 0.35266027 0.41135925 0.57218045
000010 45 0a 05 3f 60 c0 25 3f 48 7c 40 3f d4 b2 31 3f
       0.51968795 0.64746666 0.7518964 0.69413495
000020 aa 7d 28 3f 1c b9 fc 3e 6d 01 d6 3e 76 2b f8 3e
       0.6581675 0.49359977 0.41797963 0.48470658
000030 f0 6d b9 3e f7 d8 bb 3e c0 34 e4 3e c5 c1 9c 3e
       0.36216688 0.3668897 0.44571495 0.30616584

c_bn_input.bias f4 [16]
000000 5b e9 8f bf f7 00 50 bf cd 70 ad be 2e f6 68 bf
       -1.124309 -0.8125147 -0.33875123 -0.9100064
000010 8b 15 6a 3f 7e 99 5b bf c4 cc 02 3e 6b 6b a7 be
       0.9143912 -0.85781085 0.12773424 -0.3269914
000020 30 45 25 bf b9 f6 88 bc f8 40 0b be 1d 0a 32 bf
       -0.64558697 -0.016719209 -0.13599002 -0.6954668
000030 97 b5 4b bf b3 64 24 bf c7 db 14 be 14 b8 6e be
       -0.7957396 -0.64216155 -0.14536963 -0.23312408

c_bn_input.running_mean f4 [16]
000000 7c 4b af 3e 35 56 fc 3e ed 34 0b 3f 73 79 88 3e
       0.34237278 0.4928452 0.54377633 0.26655158
000010 84 3d c3 3e c5 51 5e 3e 26 b7 00 3f e5 96 b0 3e
       0.3813287 0.2171088 0.5027946 0.34490123
000020 83 56 6f 3e 59 19 94 3e c6 fb 15 3f 23 4e 90 3e
       0.23372845 0.2892559 0.585873 0.28184614
000030 de a3 e4 3e 29 19 83 3e 1d 86 02 3f 08 49 06 3f
       0.4465627 0.25605133 0.5098589 0.52455187

c_bn_input.running_var f4 [16]
000000 95 38 19 3d 4d ae 6f 3d 34 56 68 3d 67 d9 10 3d
       0.037407476 0.058515836 0.056722835 0.03536358
000010 e8 00 4c 3d eb 8a 0a 3d 0c 96 4f 3d 96 4e 25 3d
       0.04980555 0.03382389 0.050680205 0.04035815
000020 df dd 04 3d a9 df 1c 3d 73 8f 91 3d 1b c4 32 3d
       0.032438155 0.038299236 0.07107439 0.043644052
000030 93 f0 38 3d 20 71 f9 3c 3a 3e 7c 3d 55 4f 5e 3d
       0.045151304 0.03044945 0.06158278 0.054274876

c_fc1.weight f4 [32, 20]
000000 a2 4e ad 3d 7e 0a 5f 3d 78 48 52 3d c3 d1 61 3e
       0.08462264 0.054453366 0.051338643 0.22052674
000010 25 f8 7e bc 71 f7 b4 3d 27 17 91 3d a3 b7 1e bc
       -0.015562092 0.08836258 0.07084494 -0.009687337
000020 2b 7e 65 bd 05 ee bb bc 34 28 0a be 4f fc 44 3c
       -0.056028526 -0.022940645 -0.13491899 0.012023046
000030 e3 81 3b 3e d7 b7 dd 3d f2 32 1d 3d e5 07 57 3d
       0.18311267 0.1082608 0.038378663 0.052497763
000040 59 75 1b bd 70 42 9b be 8d 70 f8 3d cb cb b8 3d
       -0.03795371 -0.30324125 0.12130842 0.090232454
000050 25 8b 11 3f 01 59 f7 3d 27 47 d6 3d 3a 60 fe b8
       0.5685294 0.12077523 0.1046279 -0.000121295874
000060 78 06 80 be 7d 38 2e 3e df 11 54 be 8d 94 c4 3d
       -0.25004935 0.17013736 -0.20709942 0.09598646
000070 13 de 85 3e 9f f8 ae 3a ae a2 53 3e 9b 14 b7 3e
       0.26145992 0.0013349241 0.20667526 0.35757908
000080 70 d1 b7 3d 90 72 41 3e b4 1c 29 bc f5 2a 73 bd
       0.08975494 0.18891358 -0.010321785 -0.05936714
000090 60 e2 41 3d a9 6c 32 bf 67 47 46 bf 14 14 4c be
       0.04733503 -0.6969705 -0.774527 -0.19929534
0000a0 23 f6 f6 b9 0c a4 c2 b8 5e 8d d5 b7 ea d0 5d 37
       -0.00047104163 -9.281197e-05 -2.5457408e-05 1.3221268e-05
0000b0 fb 68 8b 39 f2 ee 06 38 1f 1f 94 38 3c e9 ae 38
       0.00026590363 3.2170625e-05 7.062987e-05 8.34041e-05
0000c0 67 64 a7 b8 2f 1e 9f 37 5a 32 d2 b7 6e 1f 03 b9
       -7.981882e-05 1.8968332e-05 -2.5057398e-05 -0.00012504842
0000d0 ca 5a b6 b8 d5 e5 01 b9 0c a1 05 b7 d6 ea 89 b7
       -8.695347e-05 -0.00012388018 -7.964914e-06 -1.6441027e-05
0000e0 b5 ce ef 3d 28 e2 e4 37 57 a2 57 39 2e 30 8a 39
       0.11709348 2.728503e-05 0.00020564474 0.00026357308
0000f0 88 3f 07 bd 89 94 c7 3b e4 2a f2 3b 86 43 93 bc
       -0.033019572 0.006090705 0.007390367 -0.017976534
000100 1f ac c0 bb 26 54 2e bc fa 0d 4b bc 1a 45 ac bb
       -0.0058798934 -0.01064018 -0.012393469 -0.005257261
000110 f8 30 a7 bc b8 e8 13 b9 fe c8 b0 3b 9c d5 74 3b
       -0.020409092 -0.00014105707 0.005395054 0.0037358766
000120 dc e4 5b 3b a5 a6 87 bc 10 9e b0 3a f8 ef 10 bc
       0.003355316 -0.016558954 0.0013474841 -0.0088462755
000130 01 e9 9d 3d a4 6f c1 b8 33 f5 35 3c 40 5a b3 bb
       0.077104576 -9.223752e-05 0.011105823 -0.005473405
000140 14 21 02 3d b1 ba 19 3d 85 09 90 3c 29 07 0e 3d
       0.031769827 0.03753156 0.017582664 0.034674797
000150 db f1 05 3c c3 b9 ce ba 9e b6 a2 3a f5 e4 11 3c
       0.008175339 -0.0015771914 0.0012414043 0.008904685
000160 51 fb df bc 11 91 bc bc b9 9a 5f bc 0e 19 22 3c
       -0.027341517 -0.023018392 -0.013647729 0.009893669
000170 7f b5 79 3d d9 c1 6c bd 88 1e fb bc af df 27 3b
       0.060964104 -0.057802055 -0.030654207 0.0025615504
000180 fd 03 3a bd dc e7 e7 bd 94 17 e7 bd f1 d0 25 bd
       -0.04541396 -0.113235205 -0.11283794 -0.040482465
000190 f6 a2 ad b8 e2 ec bf b8 67 5b 49 b8 77 8a 27 37
       -8.279637e-05 -9.1517126e-05 -4.800726e-05 9.9862145e-06
0001a0 32 b1 ce 39 8b a4 06 37 b0 44 25 39 b7 86 7b 38
       0.00039423403 8.025333e-06 0.00015761214 5.9968526e-05
0001b0 4f 11 ec b8 18 c0 07 38 dc 68 34 b8 bf e8 04 b9
       -0.00011256581 3.236541e-05 -4.3013002e-05 -0.00012675206
0001c0 b6 bd e0 b8 8f 7f 35 b9 e3 0a ff 37 98 66 a4 b8
       -0.00010716489 -0.00017309024 3.0403438e-05 -7.839239e-05
0001d0 86 c8 cd bd aa 83 77 38 c6 bc a0 39 f4 c9 8a 39
       -0.100480124 5.901201e-05 0.00030658225 0.00026471878
0001e0 6c 41 ae 3d 5d 42 f8 3c ad 27 81 3c 18 67 07 3e
       0.08508572 0.030305082 0.01576599 0.13222921
0001f0 93 8f d9 bd a1 07 64 3d 97 91 87 bd f6 a9 f3 bd
       -0.10623088 0.055671338 -0.06619566 -0.11897652
000200 39 de bd bd ff b8 97 bd de 8d dc bc 1e 21 17 bd
       -0.09270901 -0.07408332 -0.026923116 -0.036896817
000210 d1 cd 26 3d d5 86 f2 3c c4 ef 8b bd 98 fc 47 ba
       0.040723626 0.029605309 -0.06832841 -0.0007628887
000220 9e b6 01 bd 99 d0 aa be fe 2c 94 be a5 5a a3 bc
       -0.031668298 -0.33362272 -0.28940576 -0.019940684
000230 c5 62 bf ba da 69 f6 3b 54 0c 20 bb b6 47 e5 3c
       -0.0014601579 0.0075199427 -0.002442141 0.027988296
000240 59 c0 8b 3c c9 62 2e 3d 18 45 1d 3c 73 60 46 ba
       0.017059492 0.042574678 0.009598993 -0.00075674726
000250 eb 66 f6 3c 8b f5 d1 3b cb 16 b5 3b 47 0b a5 3b
       0.030078372 0.006407445 0.005526399 0.0050367448
000260 c9 a2 86 3c 37 44 9e 3c d6 d1 db 3b 6a cc 95 3c
       0.016435044 0.019319637 0.006708364 0.018285949
000270 bf a4 9a bd d1 cd c4 bc cd 06 e1 3b 2b 30 a5 3b
       -0.07550954 -0.024023922 0.006867266 0.0050411425
000280 8f ca c3 be b6 0f 53 be 35 47 95 3c 2f a6 54 be
       -0.38240477 -0.20611462 0.01822243 -0.20766519
000290 df 3d ab 3d af b6 d9 bd 23 9d b2 bc 0a b1 df bd
       0.0836141 -0.10630547 -0.021803444 -0.109224394
0002a0 63 0f d1 bd 4c 08 ee 3d 31 59 3e be 49 38 35 be
       -0.10208013 0.11622676 -0.18588711 -0.17697252
0002b0 11 65 45 be d6 6e 15 be c9 06 89 3d dc ab 2e be
       -0.19276835 -0.14593062 0.06690747 -0.17057747
0002c0 42 51 ba bc f3 95 38 3f de 4c 13 3f d5 83 72 3e
       -0.022743825 0.72103804 0.57539165 0.23683102
0002d0 65 13 ba 3a f3 9d ab 3c 7a 79 27 3d 5e 38 20 be
       0.0014196454 0.02094934 0.040887333 -0.15646502
0002e0 af d7 8d be 1b 0f 93 bd 9c 95 88 bd a7 46 a6 3b
       -0.27703616 -0.071806155 -0.06669161 0.0050743404
0002f0 56 2a a2 bc 94 39 ba bd b0 b9 3a 3b 62 bc d0 bc
       -0.019795578 -0.090930134 0.0028492026 -0.025480453
000300 8d e5 92 3d 8e 0f fa 3c 83 d1 d7 3c ff da 81 bd
       0.071726896 0.030524995 0.02634502 -0.06340598
000310 ea 9a 01 3d 8c cf 83 3c 50 19 85 be d3 2a 10 be
       0.03164188 0.016090177 -0.25995874 -0.14078836
000320 3b a7 91 ba 5f 32 59 ba 8b 94 19 ba e7 52 6a bb
       -0.0011112461 -0.0008285399 -0.00058586214 -0.003575498
000330 1d 88 e6 3a 49 32 e9 ba 9b 25 13 3a ae f2 cd 39
       0.0017588172 -0.0017791475 0.00056132086 0.00039281457
000340 69 5a 2b ba 91 68 56 39 82 7a e8 b9 28 c2 3a ba
       -0.00065366045 0.00020447584 -0.00044341764 -0.00071242684
000350 40 4c c0 ba e0 44 69 ba 02 cd 70 3a 9f 93 8b b9
       -0.0014671162 -0.0008898508 0.0009185822 -0.00026622132
000360 d9 c6 9a 3d ac 75 0c 39 50 a1 2e 3b 12 1d fa 3a
       0.075574584 0.00013395277 0.0026646443 0.001908215
000370 87 ff 3a 3c 31 74 0a 3e ba d1 a5 bb 8b cc 35 3e
       0.0114134615 0.13520886 -0.0050604017 0.17753808
000380 c1 7e f6 bc 44 2a 8a 3d 86 39 bc bc 57 22 6d bd
       -0.030089738 0.06746343 -0.022976648 -0.057894077
000390 53 a1 f2 bc 8f 95 f5 bd af 3b b1 3c 43 2c f9 3c
       -0.029617941 -0.11991417 0.021634905 0.030416613
0003a0 a0 3f 13 3e c1 c5 ac 3d 15 ad c0 bd 45 11 ab bb
       0.1437974 0.08436156 -0.09408013 -0.0052205645
0003b0 be 97 a2 3c b4 ba 30 bf f2 98 c2 be f7 1a 13 3e
       0.019847747 -0.69034886 -0.38007313 0.14365755
0003c0 9e e9 0e bb 5e 84 71 bc c4 8c 93 bc d3 81 74 3a
       -0.0021806727 -0.014741031 -0.018011458 0.00093272066
0003d0 6b 7f 36 bc cb ab 8a bd 5e a7 b5 3b ed fc 0d 3c
       -0.011138777 -0.06771048 0.0055436334 0.008666259
0003e0 f4 e7 0f 3c 1f e2 00 3d af 70 7a 3b 42 fa 8b b9
       0.008783329 0.031465646 0.0038214137 -0.00026698603
0003f0 70 36 94 bc a8 7d 1d 3c d2 3f e4 3c c5 b0 ce 3c
       -0.018092364 0.009612478 0.027862463 0.025230775

c_fc1.bias f4 [32]
000000 e4 c6 22 bd 3f b8 1c bf 01 a7 8f 39 c6 02 f0 3b
       -0.039740458 -0.6121864 0.00027399513 0.0073245494
000010 4e 9a ad bd c3 9f b5 39 34 a0 86 be 9f 6e 70 3b
       -0.08476697 0.00034642042 -0.262941 0.003668703
000020 88 04 00 3f 18 7e 0a be 52 5e 35 3b 28 45 08 bf
       0.50006914 -0.13524663 0.0027674627 -0.53230524
000030 6a 85 74 3d a6 42 fc 3e 3d 6e 8e be 0d 5c 5e bc
       0.059697546 0.492696 -0.2781848 -0.013571751
000040 cd 84 e5 3e 59 a5 05 be 91 8d 1d 3e be 5c 35 bf
       0.4482788 -0.13051356 0.15386035 -0.7084464
000050 1a 33 00 3f 42 d1 8b be e8 d4 79 3e b2 f8 00 3f
       0.50077975 -0.2730809 0.24397624 0.5037948
000060 06 d2 dd 3e fe 49 c1 bc 86 27 de 3e 42 2b 38 3d
       0.43324298 -0.023594853 0.4338953 0.04496313
000070 9d 3b 0b bc 56 db f4 bc 3b 15 80 3d 4e 0b ee 3e
       -0.0084981 -0.029889744 0.062540494 0.46493

c_bn2.weight f4 [32]
000000 43 d6 8f 3e 56 cf 4b 3f d7 77 f2 3d a2 21 87 3e
       0.28093156 0.79613245 0.11839264 0.26392847
000010 14 01 d8 3e 60 12 06 3e fa 07 10 3f 2a 0d a8 3e
       0.42188323 0.13092947 0.5626217 0.32822543
000020 73 00 3d 3f 0f 06 98 3e 6d 21 2a 3e 38 8f 64 3f
       0.7382881 0.29692122 0.16614313 0.89281034
000030 7a 0b bd 3e 55 41 59 3f 17 c2 28 3f 6e 5f 3d 3e
       0.36922818 0.84865314 0.6592116 0.18493435
000040 71 dc 66 3f a0 3e 50 3e 91 45 e0 3e 75 9a 67 3f
       0.90180117 0.2033639 0.43803075 0.9047006
000050 3c 1b 69 3f 0a 06 04 3f 5a 2e 0b 3f 12 50 36 3f
       0.9105718 0.51571715 0.543676 0.7121593
000060 bc 5d 54 3f 5f 1a 79 3e b6 e1 35 3f e4 6b 1b 3f
       0.8295553 0.24326466 0.7104753 0.60711503
000070 e1 52 0f 3e e1 9d 58 3e 2e fc ba 3e 79 57 40 3f
       0.1399646 0.21153976 0.36520523 0.7513347

c_bn2.bias f4 [32]
000000 f3 32 5e b6 79 08 2e b7 23 0d cb b4 d4 95 75 36
       -3.3110234e-06 -1.0373181e-05 -3.7821255e-07 3.6595056e-06
000010 12 a5 c4 35 79 01 98 b4 60 3c a9 b5 35 82 ea 35
       1.465118e-06 -2.8313278e-07 -1.2609053e-06 1.7472254e-06
000020 46 69 17 38 ac 81 d3 37 09 86 1c b7 ac e5 f8 b7
       3.609925e-05 2.5213543e-05 -9.329532e-06 -2.9670853e-05
000030 ae 8e 71 36 3e a5 46 38 fa 8a bb 34 7d e0 8d 36
       3.599485e-06 4.7360772e-05 3.4932583e-07 4.2282613e-06
000040 66 fa b7 b5 04 12 e7 b6 35 e8 47 b6 ab 7f 6c b7
       -1.3707438e-06 -6.8864338e-06 -2.9788473e-06 -1.4096421e-05
000050 f1 e3 92 37 86 26 d2 b7 9d e1 4d 37 74 80 7b 38
       1.75107e-05 -2.505189e-05 1.2271482e-05 5.9962695e-05
000060 1b 55 c3 b6 41 cc aa 36 7b 7c 69 b7 a4 04 a5 b8
       -5.8213604e-06 5.090173e-06 -1.3916865e-05 -7.8686775e-05
000070 76 b2 ec b4 cb 75 af 34 cd 88 5a 33 2c e8 b2 36
       -4.4088273e-07 3.2681996e-07 5.08815e-08 5.3318417e-06

c_bn2.running_mean f4 [32]
000000 29 21 33 bf cf b4 b7 be 29 57 80 3f 09 e4 7c 3f
       -0.69972473 -0.35880134 1.0026599 0.98785454
000010 20 25 7f bf 57 25 80 bf 91 cc 7c bf da ac 7a bf
       -0.99666023 -1.0011395 -0.98749644 -0.9792
000020 45 5b c9 3e be 47 68 3f cb a3 80 3f 29 a0 32 be
       0.39327446 0.9073447 1.0049986 -0.17443909
000030 d9 93 7e 3f 3e 0c 1e 3f 22 a1 5d 3f 7b 6a 80 bf
       0.9944435 0.6173743 0.86573994 -1.0032495
000040 66 51 b0 3e 1e f9 7f 3f d9 a5 77 bf 1d ed a7 be
       0.34437102 0.999895 -0.9673744 -0.3279809
000050 52 40 d8 3e 23 6f 2d be 3f 8c ab 3e 1e f4 aa 3e
       0.42236573 -0.16936927 0.33505437 0.33389372
000060 ed 78 87 3e 74 a1 5d bf 2b 24 7a 3e c8 e4 5c bf
       0.26459447 -0.8657448 0.2442786 -0.8628659
000070 12 da 7e bf 7e 82 7e bf bf b5 67 3f b1 0a 26 3e
       -0.995515 -0.99417865 0.905117 0.16215016

c_bn2.running_var f4 [32]
000000 fb be 42 3f 44 5c 46 3f 2b 09 80 3f a4 59 7f 3f
       0.76072663 0.77484536 1.0002798 0.99746156
000010 7f d7 7a 3f 00 e5 7f 3f bf b5 78 3f 5a 3c 7f 3f
       0.9798507 0.999588 0.9715232 0.99701464
000020 21 af 27 3f b8 a5 5c 3f 64 2c 7f 3f a1 f2 82 3e
       0.655016 0.86190367 0.9967711 0.25575736
000030 98 38 7e 3f ba 28 3a 3f 79 65 7b 3f 35 b2 7f 3f
       0.99305105 0.72718394 0.9820171 0.998813
000040 6c b4 89 3e 18 ff 7f 3f 6f 4c 6f 3f 58 9d 31 3f
       0.26895463 0.9999862 0.93476003 0.6938071
000050 a9 18 2e 3f 6f 1c 37 3f c7 8b 3a 3f c4 0b c0 3e
       0.6800638 0.7152776 0.72869533 0.37508976
000060 83 45 1f 3f d1 98 41 3f 0f ba c3 3e 7c 20 8a 3f
       0.6221544 0.75623804 0.3822789 1.0791163
000070 11 4c 7f 3f 01 9b 7f 3f de 09 61 3f 90 fd a7 3e
       0.99725443 0.9984589 0.8790568 0.3281064

c_fc2.weight f4 [1, 32]
000000 5d 67 8e 3c 4b 19 0f 3e b6 bd 5c 3a 92 45 f5 bc
       0.017383272 0.13974492 0.0008420603 -0.0299404
000010 ce 53 e0 3c a4 c7 ee 3b 6b 37 a7 3b 78 cd 87 bc
       0.027383711 0.0072869826 0.005103042 -0.016577467
000020 ca c7 d1 bd 15 6f 62 bd 77 84 57 3c 51 c7 1a 3e
       -0.10243185 -0.055281717 0.013154141 0.15115096
000030 ac e4 04 bd c9 12 b9 bd 97 2e f0 bd 57 fa df bc
       -0.03244464 -0.09036786 -0.11727636 -0.027341051
000040 57 5a 01 be df b2 37 bc 7d ea db 3c 15 15 c5 3d
       -0.12632118 -0.01121208 0.026845211 0.09623162
000050 95 66 11 be 71 99 ff 3d 00 76 cb bd 34 52 e0 bd
       -0.14199288 0.124804385 -0.09934616 -0.10953179
000060 01 de cf bd 15 96 dc 3c 7b 3c 11 be 24 cf 09 3e
       -0.10149766 0.026927033 -0.14183228 0.13457924
000070 c5 b0 a8 bc 95 37 32 3c 10 20 1d b9 71 85 02 be
       -0.020592103 0.01087751 -0.00014984631 -0.12746216
