autocox/sup_checkpoint_tune.pt (torch, 8507 bytes, 11 tensors)

c_bn_input.weight f4 [16]
00000000: 96a3 683f 5b61 523f 1f18 4b3f b780 6a3f
00000010: 346f 5a3f e79a 773f 6751 4e3f 8a7d 623f
00000020: 2eea 4e3f 99f1 5a3f 38a5 4d3f 3d8a 4d3f
00000030: 2af7 583f e812 633f 72d9 4e3f 0380 603f
0.9087461 0.821798 0.7933368 0.91602653 0.8532593 0.9672074 0.8059296 0.8847281
0.8082608 0.855249 0.8033023 0.8028906 0.8475214 0.88700724 0.80800545 0.8769533

c_bn_input.bias f4 [16]
00000000: eb85 68be bbf7 7bbd faf2 0fbe f767 68be
00000010: 2db8 18be 9b9f 87be b2c2 153e 6183 56be
00000020: 80e0 37be 85c8 5fbe 1a8a febd 4382 53be
00000030: 0b2e 4dbe dc87 57be 61e4 023c d815 30be
-0.22707336 -0.06151555 -0.14057532 -0.2269591 -0.14914007 -0.26488957 0.14625052 -0.20948555
-0.17956734 -0.21853836 -0.124286845 -0.2065516 -0.20037095 -0.2104792 0.00798902 -0.17195833

c_bn_input.running_mean f4 [16]
00000000: 6bac bc3e ebe2 013f 8f1e 0c3f 4f35 8b3e
00000010: bb16 c83e d228 673e d93f 123f 39d6 cb3e
00000020: 24cf 783e 850f 913e a532 243f 6fc7 933e
00000030: 9933 df3e a5f2 843e 00ca 013f e16e 063f
0.36850294 0.50736874 0.5473413 0.2718911 0.39079842 0.22574165 0.57128674 0.39811876
0.24297768 0.28332153 0.6413978 0.28863093 0.43594053 0.25966373 0.5069885 0.5251294

c_bn_input.running_var f4 [16]
00000000: e1bc 3b3e 5eae a23e 5673 ae3e 8eb1 f93d
00000010: 009f 593e 045e db3d e015 bf3e df2a 683e
00000020: f1ce e33d 0708 0a3e b9da f03e 401c 163e
00000030: 851a 6d3e 2b05 e03d 042c a33e 2bc5 a63e
0.1833377 0.31773657 0.3407237 0.12192069 0.2125206 0.107112914 0.37321377 0.22672604
0.11123455 0.13479625 0.47041872 0.14659214 0.23154648 0.10938486 0.3186952 0.32572302

c_fc1.weight f4 [32, 20]
00000000: 0bb5 153c 6462 95ba 671e d0ba 369f 23bd
00000010: 006b c0bc a1e3 26bd e2d7 b23b 3421 193c
00000020: c564 4c3c db51 06bb c244 04bb a534 643c
00000030: 6181 093c 5e2a 263c 34fd 86bc 05c7 00bc
00000040: 94e9 b13d 6d0f 20bb 0f99 b1bb 4780 66bc
00000050: 7850 0b3e 8261 043d ba61 babc bac6 c33d
00000060: c1c5 833d 1ba6 be3d 582d 96bd f1bf 883d
00000070: fc92 923d 07da ad3d 8f12 04bd fed3 913d
00000080: 8092 c83d e18f 153e fe72 89bd 86b3 853d
00000090: 19a6 193c 95a9 64be 68d2 46be 5aa9 b83d
000000a0: f781 80bd e1ad 84bc 5f10 cbbb d53c d0bc
000000b0: e990 a03d 76e5 87bc 3c7c eeba 6be6 91bb
000000c0: 7c8f 173c e0ed 60ba 12e0 db3a c497 153d
000000d0: b836 da3c 6b88 b0ba af47 ac3a 9f8d 7cbd
000000e0: 109a a5bd a580 95ba 6fe3 b33c 273f 7e3b
000000f0: 843e 5fbb d9de b8bd fceb bdbd 8334 9cbc
00000100: 4f77 323d eb69 19be 5722 d3bd a904 dfbc
00000110: b3f9 2fbd 3ac2 b13c 44e5 213e 5a80 0d3e
00000120: e0a3 be3d 50c5 b2bd a288 e13c 57a1 82bd
00000130: b800 773d 53f2 9b3d 0cc8 bdbd 4254 783d
00000140: 3c30 1bbd 413b 2d3d 00ae 88bd 3325 0c3d
00000150: 7fd4 82ba 8883 633d 255b 413d 606c cfbc
00000160: cd2a ae3d 8ec2 5a3b 45d1 cbbd e9ae 10bc
00000170: 4b25 993d 0017 28bd effa c2bb 33ec 58bc
00000180: 48b1 bd3b 3c37 94be cfe9 a1be 4f25 053d
00000190: 8f1a 243c a3e7 863b 7218 abba 4658 36bc
000001a0: fce6 bf3c d2c3 af3b ecc7 893b 287e 15bb
000001b0: 3f83 29ba f6e5 32ba 0e11 4bbb 9d68 3a3b
000001c0: 82f9 a53c 1b48 873b 86ca 11ba f81f f2bb
000001d0: 2b99 c33d fdb5 413b 2540 9a3b 9ac0 cb3c
000001e0: 04b3 723c 8212 29bd 444f 53bb a9e4 aa3b
000001f0: 33f8 7e3d b364 813c 94a1 d83c 696d 663d
00000200: 68e5 ed3c 4763 babd 2cd1 113d 1ac5 183d
00000210: b8c0 84bb d9d2 e43c f60d 013d 2344 5bbc
00000220: 0f87 ec3b 1cd7 62be ffed d9bd 8e74 7dbd
00000230: 7109 bd3d a06c bfbb 2d8e a13d 9cf7 2ebd
00000240: 3603 3f3c c9ef 923c 901c 14bc 2379 3d3d
00000250: 7230 fe3d 6552 06ba c4b6 663d be88 4d3d
00000260: f47e 9f3d 3115 cd3d a62d 953d 116d 70bc
00000270: 037d 643c 225b 03bf 02a5 c8be ac82 5cbd
00000280: 38fd 783c d954 80bc 01be 933b 6937 09bc
00000290: 7200 b8bb 3ae9 25bc 9dcb 1e3a d658 01bc
000002a0: c1a5 4cbc 42c0 253c 15d5 283c 0ae8 123c
000002b0: eb10 59bc f372 c7bb a224 b6bb 0b09 86bc
000002c0: 8f13 753d 69b1 a13b 55c1 233c 1247 47bb
000002d0: c946 833b f15c ccbc 2d2a 283b 65da 70bb
000002e0: 60d3 90bc 479c febc 3764 21bc 5ec2 253c
000002f0: af4d a93b 83f4 153c fc95 c43c 5a5a 583c
00000300: 1faf d1bb 07a8 d5bb b71f a83b f7fa 82bb
00000310: 207a eabd 7a2b 80ba b874 81bc fd35 313c
00000320: 7517 013b 04a6 bc3c 258f feba 6661 993b
00000330: c9d1 79b8 35e5 cb3b 0740 ba3c 4a36 8e3c
00000340: 4a68 2bbc 73e7 98bb 9605 cfba 7c68 74ba
00000350: ecf3 153b 1b1b ecbb 041e 023c ac5f eaba
00000360: ab2d adbd cebe 10b8 c593 693c 9da7 9e3b
00000370: 2dfe 3a3e ab8b 83bd 4286 33bc 287d 233e
00000380: 9bb6 dcbd 20b6 a33c ab00 9b3d 9951 543d
00000390: e96c 643d 1974 d63d d78a f83d 17c1 8f3d
000003a0: 9947 ef3d a2af e43d 34e0 bebd ae71 bb3d
000003b0: 7f2d 793c 6d20 d4be 799a b2bd 94c6 b53d
000003c0: 6026 7a3d 9f3e e23d 0799 0f3e 4361 2abe
000003d0: 598a 7bbe ddd1 a8be e7e4 2dbe 29ea d2bd
000003e0: 6f1b 2abe 1161 eabd ea71 9d3d 394f 8939
000003f0: 5965 debd eaf4 42be 96e9 bc3d a1d5 1f3e
0.009137402 -0.001139712 -0.0015878201 -0.039946757 -0.023488522 -0.040744428 0.005457864 0.009346295
0.012475197 -0.0020495567 -0.0020182584 0.013928567 0.008392663 0.010141937 -0.016478159 -0.00785995
0.086871296 -0.0024423257 -0.0054198573 -0.01406867 0.13604915 0.032319553 -0.022751678 0.095593885
0.06434203 0.09309026 -0.073328674 0.06677235 0.07156941 0.08488851 -0.03224426 0.071205124
0.09793568 0.14605667 -0.06711386 0.06528382 0.00937798 -0.22330315 -0.19416201 0.09016676
-0.06274789 -0.016196193 -0.00619702 -0.025419632 0.078401394 -0.016588908 -0.0018194984 -0.004452517
0.009250518 -0.0008580368 0.0016775152 0.036521688 0.02663742 -0.001346839 0.0013143922 -0.061658498
-0.08086026 -0.0011406137 0.021959035 0.0038794966 -0.0034064362 -0.0902688 -0.09273526 -0.019068008
0.043570813 -0.14981811 -0.10309284 -0.027223902 -0.04296274 0.02169906 0.15810114 0.13818493
0.093086004 -0.087290406 0.027530972 -0.063784294 0.06030342 0.07614579 -0.092666715 0.06062723
-0.037887797 0.042292837 -0.06673813 0.034215163 -0.0009981542 0.05554536 0.047206063 -0.025320232
0.08504257 0.0033380124 -0.09952024 -0.008830764 0.07477816 -0.04103756 -0.005950324 -0.013239908
0.005788956 -0.2894839 -0.31623694 0.032506283 0.010016098 0.0041169687 -0.001305355 -0.011129444
0.023425572 0.00536392 0.0042047407 -0.002281079 -0.00064663956 -0.0006824428 -0.0030985507 0.0028443702
0.020260576 0.0041284687 -0.00055614894 -0.007389065 0.09550699 0.0029557936 0.0047073537 0.024872113
0.014813188 -0.041277416 -0.003224329 0.0052152467 0.06224842 0.015795087 0.026444234 0.056256685
0.029040053 -0.09100967 0.035599872 0.037297346 -0.004051294 0.027932571 0.031507455 -0.013382944
0.0072182487 -0.2215237 -0.10641097 -0.061878733 0.092303164 -0.0058418065 0.07888446 -0.042716607
0.01165848 0.017936604 -0.009040013 0.046258103 0.12411584 -0.0005123972 0.056326643 0.050179236
0.07787886 0.100138076 0.072840974 -0.014674441 0.013945821 -0.5131093 -0.3918839 -0.053835556
0.015197091 -0.015665459 0.004508734 -0.008375027 -0.0056152875 -0.010126406 0.00060575624 -0.007894715
-0.012490691 0.010116639 0.010304709 0.008966455 -0.013248662 -0.006086701 -0.005558566 -0.016361734
0.059833106 0.004934479 0.009994824 -0.0030407351 0.004006241 -0.024946662 0.0025659904 -0.0036751267
-0.017678916 -0.031080378 -0.009850553 0.0101171415 0.0051667313 0.009152534 0.0239973 0.013205135
-0.00639905 -0.0065202746 0.005130734 -0.0039972025 -0.11449075 -0.0009778582 -0.015802726 0.010816094
0.001969782 0.023028381 -0.0019421323 0.0046808003 -5.9561604e-05 0.006222392 0.022735609 0.017359871
-0.010461876 -0.004666263 -0.0015794511 -0.0009323431 0.0022880984 -0.0072053797 0.007941727 -0.0017881296
-0.08455976 -3.4509976e-05 0.014256422 0.0048417584 0.18261023 -0.06423124 -0.0109573025 0.15965712
-0.10777017 0.019984305 0.07568487 0.05183563 0.055767927 0.104713626 0.121358566 0.07019251
0.11683578 0.11166312 -0.09320107 0.09152542 0.015208601 -0.4143099 -0.087208696 0.088757664
0.061071754 0.110471 0.14023219 -0.16638665 -0.24564494 -0.32972613 -0.1698185 -0.10298569
-0.16612028 -0.11444295 0.07687743 0.00026189702 -0.10859174 -0.1903874 0.092242405 0.15608837

c_fc1.bias f4 [32]
00000000: cd2b 49bc 1c1a 9ebe f0b2 a1bc cff1 22bd
00000010: 281c 3abe 7f06 6e3b 4502 cabd 052f 84be
00000020: 2daf 93b9 0ba0 a2bc 5156 863b 8ec9 afbe
00000030: b2c5 56be 6096 5bbb a776 e0bd f560 c7bd
00000040: 37c8 933c c412 493d d2ba 22be 4f25 84bc
00000050: 9a80 353d 9317 b73c 6694 b3be a29e 413b
00000060: 84a5 98ba 8023 483e da70 973e cb23 b5bd
00000070: e66b 23bc e735 babd fc3a 3cbd 4a61 9b3e
-0.012278509 -0.30879295 -0.019738644 -0.039781388 -0.18174803 0.003631979 -0.09863714 -0.25817123
-0.0002816854 -0.019851705 0.004099645 -0.34333462 -0.20973852 -0.0033506379 -0.10960131 -0.0973529
0.018039806 0.049090162 -0.15891579 -0.016131071 0.044312097 0.022350108 -0.35074157 0.0029544015
-0.0011646007 0.19544792 0.29578286 -0.088447176 -0.009974455 -0.09092312 -0.04595469 0.30347663

c_bn2.weight f4 [32]
00000000: 31a1 603f b4d7 8a3f 9539 673f b705 603f
00000010: d3b9 883f bf31 663f fd42 833f 71e4 943f
00000020: e1c1 653f 3eeb 743f eec7 643f 0519 913f
00000030: c200 6e3f c78c 683f 55c7 743f bffd 733f
00000040: f3fc 773f 4860 743f ef2c 793f 8fef 6a3f
00000050: 8fa6 8f3f 8021 763f dc17 883f 80b8 6b3f
00000060: 812d 713f 73c5 893f 35c0 893f ad74 823f
00000070: 49a6 723f 00ef 733f bd91 6f3f b36e 823f
0.8774596 1.0847077 0.9032224 0.8750872 1.0681709 0.89919657 1.0254818 1.1632215
0.8974896 0.9567145 0.8936757 1.133576 0.92969906 0.9083981 0.95616657 0.9530906
0.96870345 0.95459414 0.9733419 0.9177179 1.1222705 0.96144867 1.0632281 0.920784
0.9421006 1.0763382 1.0761782 1.0191857 0.9478498 0.9528656 0.93581754 1.0190033

c_bn2.bias f4 [32]
00000000: 3ab4 8536 648c 6f38 30f1 1bb6 38ec a235
00000010: c2b9 0138 3d0b b335 80cc 8bb7 73d5 7eb8
00000020: 07d9 d4b6 764b 46b6 3075 49b6 0526 5637
00000030: c857 a1b6 9c89 23b6 638c bc33 067d bbb6
00000040: 47db a9b6 200e 07b7 483c ceb6 53e5 2035
00000050: 3f10 fdb7 6d3f 45b7 2b7d 54b8 39e3 f7b4
00000060: 6040 00b7 d9fc 9237 255f 3135 af2b 3a36
00000070: 8412 93b5 a423 51b7 6af4 0a37 fcff c3b7
3.98469e-06 5.711279e-05 -2.323719e-06 1.2138689e-06 3.0928997e-05 1.333981e-06 -1.6665319e-05 -6.075711e-05
-6.3433577e-06 -2.9548223e-06 -3.0019546e-06 1.2764246e-05 -4.808393e-06 -2.4368992e-06 8.7799684e-08 -5.587589e-06
-5.0621197e-06 -8.049916e-06 -6.146296e-06 5.9938355e-07 -3.0167515e-05 -1.17568825e-05 -5.066131e-05 -4.6172661e-07
-7.644383e-06 1.7522298e-05 6.607609e-07 2.7741587e-06 -1.0957742e-06 -1.2465669e-05 8.282348e-06 -2.3365013e-05

c_bn2.running_mean f4 [32]
00000000: 1ccb 7d3f a27c 8f3b b6f4 80bf 342d 7e3f
00000010: f489 ecbd 6983 803f aeef d73d 61c5 303c
00000020: e497 803f 724e 7dbf 5cf7 7bbf af09 833d
00000030: e734 2a3e 5997 80bf 6f3e 643e 1137 263f
00000040: 122d 803f fcfd 743f 48bf 1c3d 79b6 7f3f
00000050: 11c7 94bc ee78 80bf 0c18 963d 39e2 7e3f
00000060: e2bf 7c3f 6df5 78bd b1e2 1bbe df44 c53d
00000070: c8e4 7bbf a7d4 6d3e 836c 803f f3e1 e9bd
0.99138045 0.004378871 -1.007468 0.99287724 -0.1154975 1.0040103 0.10543762 0.010789246
1.0046353 -0.98947823 -0.98424315 0.063983314 0.16621743 -1.0046188 0.22289442 0.64927775
1.0013754 0.9570005 0.038268358 0.99887806 -0.018161329 -1.0036905 0.07328805 0.9956394
0.9873029 -0.06078093 -0.15223195 0.09632277 -0.9839597 0.23225652 1.0033115 -0.114200495

c_bn2.running_var f4 [32]
00000000: 63d2 7f3f 0f32 833e 6b88 7f3f 47d2 7c3f
00000010: 9913 0d3e 32f4 7f3f c60e a43d 1c68 643e
00000020: 33a0 7c3f 567d 7f3f 21ce 7f3f 92b0 a43e
00000030: 7951 fc3e 58b0 7f3f fc48 5b3e ed33 f23e
00000040: f0f1 7f3f 76f4 6b3f 8283 863d 39ac 7f3f
00000050: 5e17 3a3e 0abf 7f3f ef30 923e 0ef6 7e3f
00000060: b6e4 7f3f b762 ae3d b324 8c3e 33c2 b73d
00000070: f2d0 7d3f 81a4 ed3d 6b30 7c3f 6d5b 133e
0.999304 0.2562413 0.9981753 0.9875836 0.13777007 0.9998199 0.0801063 0.2230534
0.98681945 0.9980062 0.999239 0.32165962 0.4928091 0.99878454 0.2141456 0.4730524
0.9997854 0.9216989 0.06568052 0.99872166 0.18172976 0.9990088 0.28552958 0.995942
0.9995836 0.08514922 0.2737175 0.089725874 0.9914695 0.11603642 0.9851138 0.14390345

c_fc2.weight f4 [1, 32]
00000000: 649e 2abc 16bc 9e3d 6a76 ba3b 7485 0ebb
00000010: dead bb3d d50b d13b 920f 6a3d 107a 113e
00000020: 306e f13b 5995 12bc 2940 493c e33b e13d
00000030: 23b0 433c 739f 9d3b 95d9 8c3c c033 243c
00000040: bbf3 ff3c 0759 713c 92dd 603d b2cd c4bb
00000050: 9f61 fb3d 6911 6d3c 8926 a73d b4e6 40bc
00000060: a029 fdbb 95ba cebd b97b b2bd c59d 5a3d
00000070: f086 a73b ed27 063d 2567 7dbc 793e 5cbd
-0.01041374 0.07750718 0.0056903856 -0.0021747025 0.09164022 0.0063795843 0.057143755 0.1420672
0.0073678717 -0.00894674 0.012283363 0.109977506 0.01194385 0.0048102676 0.017193595 0.010022104
0.03124415 0.014730698 0.054898806 -0.006005966 0.12274479 0.014469483 0.08161647 -0.011773754
-0.0077259094 -0.100941814 -0.087150045 0.053373117 0.0051125214 0.03275292 -0.015466486 -0.053770516
