autostat/saved_models/sup_checkpoint_tune.pt (torch, 8507 bytes, 11 tensors)

c_bn_input.weight f4 [16]
0.7965429 0.88200384 0.82380044 0.8807395 0.85639495 0.8965258 0.80890363 0.85245126
0.9210809 0.85990506 0.8151833 0.88256335 0.8505552 0.9108708 0.8400611 0.816017
00000000: 3cea 4b3f 01cb 613f 96e4 523f 2578 613f
00000010: b33c 5b3f b782 653f 4f14 4f3f 3f3a 5a3f
00000020: f5cb 6b3f bd22 5c3f daaf 503f acef 613f
00000030: fcbd 593f d42e 693f 3f0e 573f 7de6 503f

c_bn_input.bias f4 [16]
-0.12490544 -0.20323028 0.054950356 -0.2124581 -0.19312483 -0.25759715 -0.0122601325 -0.16451077
-0.22996372 -0.20134054 -0.10544953 -0.24092719 -0.21261066 -0.21805215 -0.22837757 -0.1645059
00000000: 6cce ffbd 991b 50be a013 613d 9e8e 59be
00000010: 84c2 45be c6e3 83be b9de 48bc 8375 28be
00000020: 9c7b 6bbe 372c 4ebe ecf5 d7bd 9eb5 76be
00000030: 9cb6 59be 1049 5fbe cfdb 69be 3c74 28be

c_bn_input.running_mean f4 [16]
0.36933142 0.5178433 0.5460187 0.26806492 0.38062787 0.22766766 0.55814266 0.40026236
0.23755865 0.2824809 0.62569845 0.28147522 0.4355687 0.2544225 0.50567096 0.529334
00000000: 0219 bd3e 6191 043f e2c7 0b3f ce3f 893e
00000010: a8e1 c23e b621 693e 70e2 0e3f 30ef cc3e
00000020: 9342 733e 56a1 903e c62d 203f 851d 903e
00000030: dc02 df3e aa43 823e a773 013f 6f82 073f

c_bn_input.running_var f4 [16]
0.18615888 0.31867826 0.34273115 0.12139131 0.2070409 0.106231995 0.3739339 0.22574067
0.10752146 0.13371709 0.46579614 0.14457856 0.23184095 0.10735479 0.31841844 0.32589376
00000000: 6fa0 3e3e cc29 a33e 757a af3e 029c f83d
00000010: 8802 543e 2990 d93d 4474 bf3e 9028 673e
00000020: 3634 dc3d 22ed 083e d57c ee3e 670c 143e
00000030: b767 6d3e d4dc db3d be07 a33e 8cdb a63e

c_fc1.weight f4 [32, 20]
0.04054026 0.041584928 0.0747785 0.04096495 -0.058302864 0.0011937427 -0.024321368 0.0017785785
0.0028927787 -0.032495447 -0.02957533 0.004215812 -0.052384533 0.15259959 -0.026398383 -0.039803088
-0.024499604 -0.17509387 -0.096675485 -0.12192688 0.0969705 0.026119307 0.013097582 0.069451295
0.03337632 0.09639228 0.07170733 0.034689184 0.094956525 -0.061414465 -0.060750306 -0.037402004
-0.06722422 -0.06691154 0.04866551 -0.115061365 -0.0056795618 -0.32714716 -0.07263264 -0.058982633
-0.0054846383 -0.0022335364 0.016144821 -0.00051101344 0.00056099583 -0.0037401402 -0.0028104733 0.0058363318
0.025006762 0.0022213664 0.0040060286 0.0013382188 -0.0022716748 0.00043402592 0.012228111 -0.000802888
0.09261057 0.0147004435 -0.002988646 -0.00918543 -0.058826413 0.063800626 -0.027325133 0.15542424
-0.062186778 0.18269743 0.112909995 0.0033986494 0.06396872 0.033626582 0.08888381 0.11984638
-0.17298138 0.030699845 0.15695707 0.14369817 0.016942095 -0.12697686 -0.36588523 0.0277917
0.023529895 -0.0021387099 -0.0016814377 -5.812339e-05 -0.0029331045 -0.0026467133 0.00019356032 0.009012167
0.0010388993 -0.0005529097 0.00022923616 0.0005173214 -0.024233874 -0.0026398995 -0.00089501124 -0.0018562111
0.07306618 -0.002946593 -0.0076244283 -0.012968838 -0.0053713536 -0.024031393 -0.03762001 -0.030207803
-0.01761993 -0.08133468 0.01670149 0.047792993 0.00017193974 -0.0066403765 0.061310083 0.010710429
0.034585137 -0.012009134 0.041058477 -0.045726094 0.0068629305 0.12563385 0.03686175 -0.0009416381
0.07466483 -0.05335357 0.020494169 0.057845958 0.055840105 0.03339024 -0.00079883286 0.029612293
0.06498832 -0.023902304 -0.1089614 -0.035871256 0.06939443 0.011585017 -0.02209333 0.0015081654
0.009803648 -0.23905727 -0.088913366 -0.03887737 0.020981425 -0.01367734 0.03907062 -0.13521567
-0.043983947 -0.0088109225 0.11263484 -0.09936667 -0.08382509 0.029974898 0.054622136 -0.1302135
-0.060944993 -0.12674612 -0.10651622 0.06993765 -0.011388751 0.4223273 0.40464574 0.043747235
0.13853148 0.04446308 0.04841914 0.058611758 0.08197262 0.116046496 -0.01647953 -0.036533233
0.022347132 -0.0030660196 0.00045970635 -0.016762858 -0.02306513 0.029933594 -0.0071394816 -0.00987952
-0.03727353 0.0066605485 0.030951075 0.103327826 0.116211 0.010637645 0.02578969 -0.0489709
0.009346374 0.03727754 -0.014702204 0.023090461 -0.020695653 -0.07124105 -0.0424202 -0.012483754
-0.006614664 0.0052517564 -0.016941119 0.03279864 0.011866749 -0.5009846 -0.27851734 -0.06926595
0.0025938775 0.00014205046 -0.001727489 -0.01995954 -0.036712375 -0.038248997 0.026673662 0.012979237
0.0013344242 0.010297181 0.01460509 0.006076339 0.01109386 0.013542862 0.00898069 -0.017716575
-0.0875135 0.0010072606 -0.027145002 -0.043508735 -0.012355731 -0.012785658 -0.015242256 0.0058594835
0.014857447 -0.075300284 0.06358678 0.057254095 -0.04283165 -0.03684064 -0.014748476 -0.042169556
0.0013732769 -0.021881696 0.016466646 0.009004684 -0.0047417637 0.19494732 0.16259295 -0.022882279
-0.021473797 -0.00012958085 0.0048597893 -0.018460028 0.0032440436 -0.019265685 0.009634804 0.0044048512
0.0009482907 0.004524217 0.0031961256 0.017406844 -0.0042572054 -0.013869367 -0.008971014 -0.0050544688
00000000: 8b0d 263d f554 2a3d 7825 993d ddca 273d
00000010: fcce 6ebd 5c77 9c3a 9b3d c7bc 311f e93a
00000020: c694 3d3b f219 05bd f647 f2bc cb24 8a3b
00000030: 2a91 56bd 1143 1c3e 6c41 d8bc 9008 23bd
00000040: 65b3 c8bc cf4b 33be ccfd c5bd cdb4 f9bd
00000050: 7898 c63d 28f8 d53c 3e97 563c 7b3c 8e3d
00000060: 9cb5 083d 5169 c53d 4bdb 923d 3f16 0e3d
00000070: 9178 c23d bc8d 7bbd 50d5 78bd d832 19bd
00000080: daac 89bd eb08 89bd 7c55 473d 4ba5 ebbd
00000090: 9e1b babb d57f a7be 6cc0 94bd c697 71bd
000000a0: 7bb8 b3bb 8660 12bb 2542 843c 88f5 05ba
000000b0: cb0f 133a 241d 75bb eb2f 38bb b33e bf3b
000000c0: fbda cc3c 5894 113b 0145 833b 2c67 af3a
000000d0: 61e0 14bb f98d e339 6a58 483c e778 52ba
000000e0: 9caa bd3d 21da 703c 29dd 43bb 7c7e 16bc
000000f0: f7f3 70bd e7a9 823d f5d8 dfbc 8827 1f3e
00000100: 90b7 7ebd 0915 3b3e 5b3d e73d e0bb 5e3b
00000110: 0802 833d 07bc 093d b708 b63d 0572 f53d
00000120: 0822 31be 3e7e fb3c 5bb9 203e 9d25 133e
00000130: 26ca 8a3c 3906 02be 4f55 bbbe 6bab e33c
00000140: c4c1 c03c 9929 0cbb b063 dcba 84c9 73b8
00000150: 5439 40bb 7b74 2dbb 74f6 4a39 c5a7 133c
00000160: ad2b 883a 24f1 10ba 1d5f 7039 da9c 073a
00000170: 1e86 c6bc 2a02 2dbb 309f 6aba 1c4c f3ba
00000180: b9a3 953d a11b 41bb 57d6 f9bb 407b 54bc
00000190: 2e02 b0bb 7cdd c4bc 7117 1abd 5b76 f7bc
000001a0: ac57 90bc cc92 a6bd 90d1 883c 96c2 433d
000001b0: b94a 3439 8497 d9bb 4820 7b3d cc7a 2f3c
000001c0: 25a9 0d3d f5c1 44bc ef2c 283d 494b 3bbd
000001d0: 6fe2 e03b 29a6 003e 59fc 163d 43d8 76ba
000001e0: e0e9 983d 4689 5abd 63e3 a73c e2ef 6c3d
000001f0: 98b8 643d 34c4 083d c468 51ba 7b95 f23c
00000200: 9918 853d c4ce c3bc 2827 dfbd bded 12bd
00000210: ab1e 8e3d 15cf 3d3c 12fd b4bc a2ad c53a
00000220: 7b9f 203c 6ecb 74be 3618 b6bd e13d 1fbd
00000230: 3de1 ab3c ec16 60bc 8408 203d fa75 0abe
00000240: 8328 34bd b05b 10bc 18ad e63d c180 cbbd
00000250: 7dac abbd eb8d f53c 76bb 5f3d b056 05be
00000260: 75a1 79bd bcc9 01be 2d25 dabd 783b 8f3d
00000270: e297 3abc 493b d83e ba2d cf3e 4d30 333d
00000280: 32db 0d3e eb1e 363d 2653 463d e212 703d
00000290: 43e1 a73d c9a9 ed3d 1400 87bc dfa3 15bd
000002a0: 5511 b73c 46ef 48bb be04 f139 4352 89bc
000002b0: 15f3 bcbc 4c37 f53c 50f2 e9bb b6dd 21bc
000002c0: 21ac 18bd bb40 da3b 1c8d fd3c 8a9d d33d
000002d0: 0800 ee3d 8449 2e3c e644 d33c b695 48bd
000002e0: 8921 193c 55b0 183d 83e1 70bc 3528 bd3c
000002f0: ee89 a9bc d4e6 91bd cec0 2dbd a988 4cbc
00000300: d3bf d8bb ed16 ac3b 1ac8 8abc de57 063d
00000310: c16c 423c 8740 00bf d399 8ebe 4edb 8dbd
00000320: 0bfe 293b 61f3 1439 ea6c e2ba 3082 a3bc
00000330: b75f 16bd fbaa 1cbd b982 da3c dea6 543c
00000340: d9e7 ae3a 82b5 283c 304a 6f3c 071c c73b
00000350: 05c3 353c e1e2 5d3c be23 133c 5a22 91bc
00000360: 473a b3bd 0f06 843a 325f debc 3736 32bd
00000370: b16f 4abc f07a 51bc a8ba 79bc e900 c03b
00000380: a66c 733c 0937 9abd c939 823d 4583 6a3d
00000390: 3d70 2fbd 36e6 16bd 98a3 71bc fcb9 2cbd
000003a0: 87ff b33a 3e41 b3bc 0fe5 863c 6288 133c
000003b0: cc60 9bbb 45a0 473e c47e 263e 9e73 bbbc
000003c0: d1e9 afbc 18e0 07b9 de3e 9f3b 7c39 97bc
000003d0: 059a 543b 12d3 9dbc 4cdb 1d3c 9256 903b
000003e0: b696 783a e23f 943b 1776 513b cc98 8e3c
000003f0: 0780 8bbb 573c 63bc 29fb 12bc f59f a5bb

c_fc1.bias f4 [32]
-0.06179771 -0.28218493 -0.0026733044 -0.32336354 -0.0073822946 0.045044947 -0.10569538 0.26572052
0.050987877 -0.3028204 -0.014091234 0.15798846 -0.004054702 0.0044307294 0.11166747 0.0414042
0.002559442 0.27612165 0.025814136 -0.01430945 0.044896744 -0.32623765 0.059277132 0.00814786
-0.11126174 0.19414675 0.15607053 0.03627362 0.16258363 0.2686467 -0.17769869 -0.048377953
00000000: 981f 7dbd 8b7a 90be 9b32 2fbb e88f a5be
00000010: 2de7 f1bb 0d81 383d d276 d8bd 850c 883e
00000020: aad8 503d 470b 9bbe ebde 66bc bac7 213e
00000030: 4edd 84bb a72f 913b eab1 e43d 7397 293d
00000040: 50bc 273b d15f 8d3e 2b78 d33c 2f72 6abc
00000050: a6e5 373d 9f08 a7be 94cc 723d 9a7e 053c
00000060: 32dd e3bd 68ce 463e f4d0 1f3e a693 143d
00000070: 537c 263e 0f8c 893e a5f6 35be f627 46bd

c_bn2.weight f4 [32]
0.9664056 1.035526 0.9165795 1.0641499 0.95717424 0.94039804 0.9349713 1.1110406
0.91141814 1.2018194 0.972144 1.0154024 0.91036826 1.0728191 0.96612877 0.9613146
0.8963815 1.0146291 0.87367755 0.84004086 1.0312048 1.0967484 0.9397899 0.9203814
1.0940362 1.0541247 1.0398008 0.888883 1.0625983 0.9954471 1.0716984 0.8664629
00000000: 5b66 773f 1e8c 843f f4a4 6a3f 1036 883f
00000010: 5f09 753f edbd 703f 475a 6f3f 9436 8e3f
00000020: b352 693f 38d5 993f 6ede 783f b5f8 813f
00000030: e50d 693f 2352 893f 3754 773f b718 763f
00000040: 4279 653f 5edf 813f 55a9 5f3f eb0c 573f
00000050: 85fe 833f 4062 8c3f 1296 703f 1e9e 6b3f
00000060: 6109 8c3f 8fed 863f 3118 853f d68d 633f
00000070: 3903 883f 9fd5 7e3f 6a2d 893f 83d0 5d3f

c_bn2.bias f4 [32]
-2.3183686e-06 -4.6921148e-05 5.951453e-06 -3.13409e-05 1.19005826e-07 7.829059e-06 6.1870323e-06 -2.7728165e-05
4.6667174e-06 -2.0239391e-05 -1.3768268e-06 -1.4518661e-05 -4.7623703e-06 1.4069625e-06 -5.024786e-06 6.380246e-06
-1.7719013e-06 -2.8205222e-06 -2.87636e-06 2.7119456e-06 1.49506295e-05 6.0254646e-05 3.6254467e-06 -6.946621e-07
-1.4471627e-05 3.6836504e-05 -1.7106053e-06 -8.587032e-09 -3.225564e-05 5.2618052e-05 -3.365622e-05 -1.4510408e-06
00000000: 4595 1bb6 33cd 44b8 98b2 c736 0974 03b8
00000010: 2590 ff33 8d59 0337 349a cf36 c899 e8b7
00000020: cc96 9c36 c3c7 a9b7 69cb b8b5 2d95 73b7
00000030: 73cc 9fb6 ddd6 bc35 959a a8b6 e515 d636
00000040: 11d2 edb5 3448 3db6 7d07 41b6 dffe 3536
00000050: 77d4 7a37 efb9 7c38 b34c 7336 d178 3ab5
00000060: 2acb 72b7 e580 1a38 f397 e5b5 2b86 13b2
00000070: 3b4a 07b8 34b2 5c38 172a 0db8 62c1 c2b5

c_bn2.running_mean f4 [32]
-0.89506596 -0.3739523 1.0252652 0.10726354 1.0068672 -0.57404816 0.07684041 0.25888667
-0.9566816 0.0136545235 -0.9840439 -0.037717093 0.99368113 0.07990637 -0.56042176 0.97069937
0.9983581 -0.01506685 -1.0105855 1.0013833 -0.23682635 -0.04483548 -0.58527076 0.9931451
0.13937311 -0.09607652 -0.05384792 -0.9875189 -0.055680107 -0.065864086 0.123733275 0.5643655
00000000: 0b23 65bf ad76 bfbe e43b 833f fdac db3d
00000010: 06e1 803f d2f4 12bf 815e 9d3d cb8c 843e
00000020: 16e9 74bf 39b7 5f3c 4dea 7bbf 3d7d 1abd
00000030: e361 7e3f f3a5 a33d cd77 0fbf c17f 783f
00000040: 6594 7f3f f3da 76bc de5a 81bf 542d 803f
00000050: 9b82 72be 69a5 37bd 4ed4 15bf c23e 7e3f
00000060: d3b7 0e3e c4c3 c4bd a38f 5cbd 0ace 7cbf
00000070: d310 64bd c0e3 86bd df67 fd3d 427a 103f

c_bn2.running_var f4 [32]
0.8278062 0.3146174 0.99798506 0.35618985 0.99913293 0.54289883 0.11924434 0.31403393
0.9362438 0.11722071 0.997153 0.11625308 0.9970501 0.3689567 0.47430587 0.96079534
0.9997046 0.33953002 0.9979953 0.99649554 0.30172843 0.17395367 0.39167008 0.998264
0.26108316 0.40151605 0.30178303 0.99438566 0.2378339 0.34637988 0.17713334 0.39892513
00000000: 1beb 533f 8815 a13e f37b 7f3f 845e b63e
00000010: 2dc7 7f3f 6bfb 0a3f 6036 f43d 0ec9 a03e
00000020: acad 6f3f 6911 f03d 6b45 7f3f 1816 ee3d
00000030: ad3e 7f3f e5e7 bc3e 38d8 f23e aff6 753f
00000040: a4ec 7f3f e1d6 ad3e 9f7c 7f3f 551a 7f3f
00000050: 267c 9a3e e920 323e fb88 c83e 3b8e 7f3f
00000060: b1ac 853e 8393 cd3e 4e83 9a3e 0f90 7e3f
00000070: bb8a 733e b458 b13e 7162 353e ea3f cc3e

c_fc2.weight f4 [1, 32]
0.00253332 0.06443785 -0.009219621 0.072817475 -0.006594512 -0.01475859 0.035704095 -0.10978381
0.0045027947 0.15508114 0.0027180172 -0.053789202 -0.0071493266 0.080155924 -0.026898721 0.018526051
0.007990029 -0.048394594 0.012417343 -0.0050823363 -0.05445808 0.107992336 -0.019881435 -0.0027558913
0.10025663 -0.06313834 -0.059552982 -0.0014083784 -0.07428142 -0.039503857 0.08152107 0.0039509744
00000000: 0f06 263b fef7 833d e50d 17bc 5421 953d
00000010: c716 d8bb 03ce 71bc 753e 123d 56d6 e0bd
00000020: 2e8c 933b 97cd 1e3e c320 323b 1152 5cbd
00000030: e644 eabb ca28 a43d b55a dcbc f2c3 973c
00000040: 9ce8 023c 6939 46bd 1d72 4b3c ba89 a6bb
00000050: 700f 5fbd 162b dd3d 64de a2bc 2f9c 34bb
00000060: 5953 cd3d ad4e 81bd d4ed 73bd 5699 b8ba
00000070: db20 98bd ccce 21bd 85f4 a63d 2d77 813b
