autobin/saved_models/binary_classifier_checkpoint_overall.pt (torch, 6454 bytes, 11 tensors)

bn_input.weight f4 [16]
00000000: a7bb 293f cb58 293f ab4c 293f 529f 293f
00000010: e362 293f ff7c 293f 178a 293f 2a9a 293f
00000020: a874 293f 7dc3 293f 9977 293f 21c8 293f
00000030: c5a4 293f c881 293f a90f 2a3f b269 293f
0.6630196 0.6615111 0.6613261 0.6625873 0.66166514 0.66206354 0.66226333 0.6625086
0.6619363 0.66313916 0.66198117 0.66321 0.66267043 0.66213655 0.66430146 0.66176903

bn_input.bias f4 [16]
00000000: 1b11 bd3b 10d2 31bc 22ee a93c 6223 84bb
00000010: ec9f c2bc 2565 5c3c 56b8 273c c17b c73c
00000020: 4e2c deba c39a 393c 9f0a 2cbb caed 91bc
00000030: 7f0c 1bbb f5f6 483c cb48 9c3c 9b7e 693c
0.0057698614 -0.010853305 0.020743433 -0.0040325383 -0.023757897 0.013451849 0.01023682 0.024351003
-0.001695046 0.011328402 -0.0026251448 -0.017813582 -0.0023658571 0.01226591 0.01907768 0.0142513765

bn_input.running_mean f4 [16]
00000000: 6c61 3b3d aeb0 e83b ddb7 b739 da77 4aba
00000010: 98cf 4e3c 29d2 523d 3f94 f43c bcc4 bcbc
00000020: 086b 7e3d 3e0e 533c caaf 8fbd ed0f 6dbc
00000030: 904b 48bc 5068 df3d 323b a23d 71fa a83c
0.045747206 0.00710114 0.0003504147 -0.0007723548 0.012622736 0.051469956 0.029855845 -0.023043029
0.06211379 0.012881814 -0.07015951 -0.014469129 -0.012225047 0.10908568 0.07921447 0.020627232

bn_input.running_var f4 [16]
00000000: 1ff5 4d3f 8c1d 873f 7082 b03f 0d26 9d3f
00000010: a7a5 b03f 3f29 303f 5ebb c73f be18 c13f
00000020: fbd7 7c3f d6f9 6e3f c0e6 3f3f 9486 953f
00000030: 0583 9c3f 39e8 613f 2561 243f 82bf 003f
0.8045215 1.0555892 1.3789806 1.2277237 1.3800553 0.68812937 1.5604055 1.5085676
0.9876706 0.9334997 0.7496147 1.1681695 1.2227484 0.8824497 0.6421073 0.5029222

fc1.weight f4 [8, 20]
00000000: 8028 773d 7180 56bc b60b 703d 2e6b dbbc
00000010: 85ff 9ebc 26ca 533b 5ef4 c73c d9a5 b23d
00000020: 41ec 823c 2420 bd3c ae97 523c 5605 6ebd
00000030: 3323 67bc 1ae0 053d 11f4 3e3d 1adb 503d
00000040: 7dd2 90ba 029c 1b3c bb7d c83c 8ab1 593d
00000050: 4970 6e3d d7c9 423c 5101 173c 5aff 193d
00000060: 245a 49bc 0252 32bd 2f8c 56bc 6fca 253d
00000070: 7941 b43c 0bfd 52bc fe4a 92bc 158b 34bc
00000080: 822e 94bc cfef 2e3d 0cba 863b 9bc0 d83c
00000090: cc7d 49bb b7d3 dfbb d163 443d af59 863d
000000a0: a082 debb eb32 173c 6ff2 403c 650d b5bc
000000b0: be81 47bc 9446 303d b5eb c83d 8ab6 d23c
000000c0: 8fb8 3bbd bd1e a33d 7c8d ebbb 3d65 08bd
000000d0: c371 22bd d0d6 1e3d cb85 463d 325d 3e3c
000000e0: eac5 a8ba eee5 833b d0dc 4cbc 678e 5e3c
000000f0: 5a3d a5bc e4a3 99bb 5538 20bc 9735 8d3d
00000100: 8b9e cd3b b97d 273c b054 6bbb 5153 39bb
00000110: 27cf db3c a50a a0bd c0a9 553d 9626 583d
00000120: 40e9 583d ab7b 3cbc 668a 81bd 5126 a9bc
00000130: c64b 913b 05c7 b2ba 0bca a6bc e28b 1abd
00000140: 4736 03bc a5de e13c d663 a0bc ee98 583d
00000150: 7503 4d3d 976b 57bd f7a8 06bc 6506 8bbd
00000160: 062b 533c 55f3 88bc e10e 513d c855 963d
00000170: 506e 1cbc 11c4 1d3a c809 e5bd c45c e5bc
00000180: 5c8d 80bb e5f3 48bd ae3a 273c d953 25bd
00000190: 6247 58bd 1215 003d bc3f 423a 1cdb 4cbd
000001a0: a701 803c c2bb 023c b066 fdbb b7c8 31bd
000001b0: 126c 1ebd 3c1e 1b3d f11d 823c 872f 603d
000001c0: 6f3d 543c eed6 85bc da9b 8ebd bcf0 85ba
000001d0: 398c 2d3b f566 e5bb e0d8 c9bc d808 63bd
000001e0: b00c 823d 4241 3bbd 03a8 f9bb 151b 9bbc
000001f0: 51fd c33c fba3 15bd 8273 24bd 99d2 143c
00000200: 40d9 803d 0c55 ffbc 7c8f f7bb 19b2 93bd
00000210: bbbe 8fbd 4682 38bd 5fb1 833d fd1f 363a
00000220: f666 c5bb a316 aabc 6f51 803d 5762 943c
00000230: 85dd 89bd a545 87bc 9f72 80bc 3b2f 96bc
00000240: 9739 0abd 8bed be3c 832a 403c dcb0 d0bc
00000250: 44a4 223c e43c 9b3b f164 26bc 9950 c3bc
00000260: 5aff d83c 66be 3ebd 0d38 d93c f7b1 adbc
00000270: e027 77bc af62 a83c 1f8f 8bbd f68f 94bd
0.06034136 -0.013092146 0.05860492 -0.026784506 -0.01940895 0.0032316535 0.024408516 0.08723039
0.015981795 0.023086615 0.012853546 -0.058110557 -0.014107513 0.032684423 0.04661948 0.0509902
-0.0011049059 0.009497644 0.024474015 0.05314783 0.058212552 0.011888943 0.009216622 0.037597038
-0.012289558 -0.04353524 -0.013094946 0.04047626 0.022003876 -0.012877713 -0.017858025 -0.011019488
-0.018088583 0.042709168 0.004111534 0.026459029 -0.0030745147 -0.0068306583 0.047946755 0.065600745
-0.006790474 0.009228448 0.011776551 -0.022101114 -0.012176929 0.04303606 0.098105825 0.025721807
-0.045830306 0.07964847 -0.007188497 -0.033299673 -0.039659273 0.03877908 0.04846744 0.011618899
-0.0012876366 0.0040252125 -0.012503818 0.013583756 -0.020170856 -0.0046887267 -0.009779056 0.06894987
0.0062750033 0.010222846 -0.0035908632 -0.002827842 0.026832176 -0.0781453 0.05216384 0.052771173
0.05295682 -0.011504094 -0.063252255 -0.020648153 0.0044340817 -0.0013639635 -0.020360013 -0.03773106
-0.008008546 0.027571985 -0.019578855 0.05288022 0.050052125 -0.05259284 -0.008218995 -0.06788329
0.012888676 -0.016717592 0.05103958 0.0734058 -0.009547785 0.0006018291 -0.11183506 -0.027998336
-0.0039231014 -0.04906072 0.010206861 -0.040363166 -0.05280245 0.031270094 0.000741001 -0.050013646
0.015625788 0.007979335 -0.0077331886 -0.043404307 -0.038677283 0.03787063 0.015883418 0.054732826
0.0129541 -0.016337838 -0.0696332 -0.0010218839 0.0026481284 -0.007000799 -0.024639547 -0.055428356
0.06350076 -0.04571653 -0.0076189055 -0.018933812 0.023924502 -0.036533337 -0.04014922 0.0090834135
0.06291437 -0.031168483 -0.0075549465 -0.07211704 -0.07018801 -0.045046113 0.06430315 0.00069475156
-0.006024237 -0.020762747 0.06265532 0.018113298 -0.067317046 -0.016512701 -0.015679656 -0.018333068
-0.03374633 0.023306629 0.011728886 -0.025474958 0.009926859 0.0047374833 -0.010155902 -0.023842143
0.026488949 -0.046568297 0.026515985 -0.021203024 -0.015085191 0.020554869 -0.068144076 -0.07254021

fc1.bias f4 [8]
00000000: 90d4 1c3d 6b47 653d 997e 63bb 3119 29bd
00000010: 42c4 35bc 4b94 51bd c7d3 fe3b 09c6 37bd
0.038288653 0.055976313 -0.003471291 -0.04128379 -0.011094155 -0.051166814 0.0077767107 -0.044866595

bn2.weight f4 [8]
00000000: 5288 2c3f 8f2f 233f b55c 2a3f 2e4a 273f
00000010: fdef 243f acf8 263f 794e 273f b733 293f
0.6739551 0.63744444 0.6654771 0.65347564 0.64428693 0.65223193 0.65354115 0.66094536

bn2.bias f4 [8]
00000000: cc0d 943e 895b bdbe ad4c a0be 7f1a debe
00000010: 751c d53e 9d5e dfbe 6c9e cbbe 914e 9d3e
0.28916776 -0.36983898 -0.313085 -0.4337959 0.41623273 -0.43626872 -0.39769304 0.30724004

bn2.running_mean f4 [8]
00000000: f2d5 38be e1b1 a3be 5595 a4bd 2d41 3e3d
00000010: 2549 2c3e 0b6d f43d bc6c 16be a885 79be
-0.18050364 -0.31971648 -0.08036295 0.046448875 0.16824777 0.11934861 -0.14689916 -0.24367392

bn2.running_var f4 [8]
00000000: 46dd b13c 0c5b 123d a16e ae3c a741 843c
00000010: fd21 e03c 3e75 923c c8f9 ca3c 75f6 3c3d
0.021711957 0.03573136 0.021292986 0.016144587 0.027359957 0.017878171 0.024777308 0.046133477

fc2.weight f4 [1, 8]
00000000: 930a a8be 5df9 da3e cf8d b93e 7813 d43e
00000010: 7c81 d9be 3df9 d33e 4636 e33e 6f54 b6be
-0.32820567 0.42768374 0.36241004 0.41421103 -0.424816 0.4140109 0.44377345 -0.35611293
