autobin/saved_models/binary_classifier_checkpoint_tune.pt (torch, 9088 bytes, 11 tensors)

bn_input.weight f4 [16]
0	0x3f771275	0.9651254
1	0x3f770daa	0.96505225
2	0x3f77094f	0.9649858
3	0x3f770db4	0.96505284
4	0x3f7710a6	0.9650978
5	0x3f771353	0.9651386
6	0x3f7710a5	0.9650977
7	0x3f770f6a	0.96507895
8	0x3f770e0e	0.9650582
9	0x3f770ae0	0.9650097
10	0x3f77119f	0.9651126
11	0x3f770aed	0.96501046
12	0x3f770f50	0.9650774
13	0x3f770e32	0.96506035
14	0x3f7710be	0.9650992
15	0x3f770f0e	0.96507347

bn_input.bias f4 [16]
0	0x3ad8b3f4	0.0016533122
1	0xba929d95	-0.0011185879
2	0x3b4e2250	0.0031453557
3	0x3b6d35cf	0.0036195402
4	0x3b53faa8	0.0032345448
5	0x3af4eb1d	0.0018685792
6	0x3b0571fe	0.0020362134
7	0x3a739403	0.000929177
8	0x3a657fad	0.0008754682
9	0xbb1a0e5e	-0.0023507099
10	0xbb5c5e48	-0.0033625532
11	0x3b41d57d	0.0029576712
12	0x3ab0ac36	0.0013479057
13	0x3b0381ca	0.0020066374
14	0xba9f4914	-0.0012152516
15	0x3b42b394	0.0029709088

bn_input.running_mean f4 [16]
0	0x3d287fbf	0.041137453
1	0xba6632b9	-0.0008781362
2	0x3c65de07	0.014029986
3	0xba04ed03	-0.0005070718
4	0x3c06e527	0.008233345
5	0x3d63569c	0.05550252
6	0x3d03ed22	0.03220857
7	0x3c5fb992	0.013655083
8	0x3d3c9045	0.046036024
9	0x3c1ae214	0.009453315
10	0xbdafe0a3	-0.08587768
11	0xbd3be748	-0.045874864
12	0xbb54134a	-0.003236013
13	0x3dc5dcc5	0.09661249
14	0x3d941209	0.072300024
15	0x3cc39fe1	0.023879947

bn_input.running_var f4 [16]
0	0x3f8d189d	1.1023136
1	0x3fae2642	1.3605425
2	0x3fd4c91f	1.6623877
3	0x3fc71e75	1.555617
4	0x3fdc95a2	1.7233164
5	0x3f82c957	1.0217694
6	0x3ff48b24	1.9104962
7	0x3ff3d2ad	1.9048668
8	0x3fa46460	1.2843132
9	0x3fa08f9e	1.2543828
10	0x3f84658c	1.034349
11	0x3fbd4e2f	1.4789485
12	0x3fc5584c	1.5417571
13	0x3f9afadc	1.2107806
14	0x3f6a8576	0.91609895
15	0x3f45318f	0.77028745

fc1.weight f4 [32, 20]
0	0x3e2e281e	0.17007491
1	0x3d029a81	0.031885628
2	0x3e0697a8	0.1314379
3	0xbd0df23a	-0.034654833
4	0x3d67b7f4	0.056571916
5	0x3d79b836	0.060966693
6	0x3d84f299	0.06491584
7	0xbe0ab627	-0.13546048
8	0x3d8f2982	0.06990339
9	0x3de55a76	0.11198895
10	0x3b1d9d04	0.0024049887
11	0xbb476774	-0.0030426653
12	0xbe33c58d	-0.17555828
13	0xbcb94dfb	-0.022620192
14	0x3d714496	0.0589033
15	0xbd31c2f3	-0.04339881
16	0x3d3740db	0.044739585
17	0x3d659e64	0.056059256
18	0x3df84494	0.12122455
19	0x3c0f4bbf	0.008746087
20	0x3bc3f11b	0.0059796697
21	0xbb8a2bb5	-0.004216636
22	0xbbac3233	-0.0052550077
23	0xbe372827	-0.1788641
24	0x3e37d3f9	0.17951955
25	0xbda79469	-0.08182604
26	0x3ae8be27	0.0017756865
27	0x3be6addc	0.0070397686
28	0xbda33501	-0.07969094
29	0x3e0cda66	0.13755187
30	0x3e27ca87	0.16385852
31	0x3d367e13	0.044553827
32	0xbdb082da	-0.08618708
33	0xbd511893	-0.051048826
34	0x3c9e71d6	0.01934139
35	0x3e3c1989	0.18369116
36	0x3d5d31fa	0.05400274
37	0xbdc8e9ca	-0.09810217
38	0xbe0d0266	-0.13770446
39	0xbe36c8d8	-0.17850053
40	0xbdba68a9	-0.091019936
41	0x3dd58f62	0.10427739
42	0x3d75eb66	0.060038947
43	0x3e381b1c	0.17979091
44	0xbc359a89	-0.011084207
45	0xbcde2295	-0.0271161
46	0xbd935530	-0.071939826
47	0xbcced1c6	-0.025246512
48	0x3e33c421	0.17555286
49	0x3e32ae3d	0.17449279
50	0xbe31a046	-0.17346296
51	0xbd9162d1	-0.07098926
52	0xbe16f49a	-0.14741746
53	0x3ab6280a	0.0013897431
54	0xbba93628	-0.0051639266
55	0xbdad86ea	-0.084729984
56	0xbd7afb1a	-0.061274625
57	0x3c3b9e23	0.011451277
58	0xbe312c7c	-0.17302126
59	0x3d5a6d1e	0.05332672
60	0xbd957c9e	-0.072991595
61	0x3e09da7c	0.13462251
62	0x3e33c63f	0.17556094
63	0x3acce628	0.0015632557
64	0xbc3d6771	-0.011560307
65	0x3d400a78	0.046884984
66	0x3dd68c92	0.104760304
67	0x3ce83309	0.028344648
68	0xbe01c13c	-0.1267137
69	0xbd5f4d4e	-0.054517083
70	0xbd09d6d7	-0.033652153
71	0x3c06f31d	0.008236674
72	0xbe24b3df	-0.1608424
73	0x3e2e0094	0.16992408
74	0x3dee2b38	0.11629337
75	0xbd0e5553	-0.03474934
76	0xbd2d27bf	-0.042274233
77	0xbba5db80	-0.005061567
78	0xba5c27aa	-0.00083982444
79	0x3d1d5e96	0.038420282
80	0x3e0e9f9a	0.1392807
81	0x3da03616	0.07822816
82	0x3ca9cdf6	0.020728093
83	0xbc5ac524	-0.013352666
84	0x3ded6a45	0.11592535
85	0x3e0df627	0.13863431
86	0x3c097941	0.008390726
87	0xbd99ac65	-0.07503585
88	0xbba283ee	-0.004959575
89	0x3da10cef	0.07863795
90	0x3cbef0b5	0.023308137
91	0x3e409033	0.18805008
92	0x3d2e4a4c	0.042551324
93	0x3dfea5fa	0.12434001
94	0xbd958f5b	-0.073027335
95	0x3d890baa	0.06691678
96	0x3d15059d	0.036382306
97	0xbbb05b2a	-0.0053819614
98	0xbdfab0c9	-0.1224075
99	0xbe06366d	-0.131067
100	0x3db2c5c3	0.08729126
101	0x3e0553f1	0.13020302
102	0xbda4cb8e	-0.080466375
103	0x3d0e29dd	0.034707893
104	0x3e3e0ffd	0.18560787
105	0xbaef57db	-0.0018260436
106	0xbe2a148a	-0.16609398
107	0x3d12f756	0.03588041
108	0x3da4ba8d	0.08043394
109	0x3d4d0ba6	0.050059937
110	0xbd90a1d2	-0.07062115
111	0x3b920f45	0.0044573867
112	0x3e2949b9	0.16532029
113	0x3bc55cf4	0.0060230438
114	0x3b6a32c0	0.0035735816
115	0x3e10d922	0.1414533
116	0xbe146923	-0.14493231
117	0xbc256d23	-0.010096821
118	0xbd7df6b3	-0.06200285
119	0xbe1a7e4c	-0.15087241
120	0xbc93da3a	-0.018048394
121	0xbd6f8828	-0.058479458
122	0xbbbe3cbd	-0.0058055804
123	0xbd07ac15	-0.033123095
124	0xbd9c47bd	-0.076308705
125	0xbd881597	-0.06644743
126	0xbdf96ec0	-0.12179327
127	0xbca8f296	-0.020623486
128	0xbba5c43e	-0.0050587943
129	0xbd6a9e6c	-0.05727999
130	0xba455833	-0.00075280963
131	0x3df13bd3	0.11778989
132	0x3c336447	0.010949201
133	0x3bf4b6f4	0.007468099
134	0xbc542fc3	-0.01295084
135	0xbe316e21	-0.17327167
136	0xbdfe6890	-0.124222875
137	0xbe23a7be	-0.15981957
138	0xbe2b6fb3	-0.16741829
139	0x3de568f3	0.11201658
140	0xbd2c4d3b	-0.04206584
141	0xbd112dc1	-0.035444025
142	0x3e1c6218	0.15271795
143	0xbce1fd7c	-0.027586691
144	0x3df06310	0.11737645
145	0xbe3097a1	-0.17245342
146	0xbe1f2d19	-0.15544547
147	0xbadb0751	-0.0016710554
148	0xbe2762e0	-0.16346312
149	0xbd34c4e5	-0.044133086
150	0xbe1fd178	-0.1560725
151	0x3e288cd0	0.16459966
152	0x3ba1fca4	0.004943447
153	0xbcf65dbe	-0.030073997
154	0x3ddd511a	0.108064845
155	0x3e074394	0.13209373
156	0xbd23191c	-0.039818868
157	0xbdd1d717	-0.10246103
158	0xbe080d2d	-0.13286276
159	0xbb924190	-0.004463382
160	0x3dbde1b7	0.09271567
161	0xbdcc2763	-0.0996845
162	0x3d8e264b	0.069408976
163	0x3daf2392	0.085517064
164	0xbe349c96	-0.17637858
165	0xbc5d095e	-0.013491003
166	0x3dd43f37	0.1036362
167	0xbe2d45e4	-0.16921192
168	0xba182912	-0.000580446
169	0xbe0fab8b	-0.14030282
170	0x3dab5ffa	0.083679155
171	0x3e027b44	0.12742335
172	0xbde9c833	-0.11415138
173	0x3d1cd045	0.03828456
174	0x3e072eb3	0.13201408
175	0x3bae7d91	0.0053250273
176	0x3e016d82	0.1263943
177	0x3d0cff9e	0.034423463
178	0xbc25e0b5	-0.010124375
179	0xba073003	-0.00051569956
180	0xbe408b72	-0.18803194
181	0x3e190e5a	0.14946881
182	0x3d254029	0.04034439
183	0xbe19b7ec	-0.15011567
184	0x3e2af1dc	0.16693825
185	0x3bbebc2d	0.005820772
186	0xbdc80688	-0.09766871
187	0x3da4df00	0.080503464
188	0xbe00230a	-0.12513366
189	0xbe2f2e5f	-0.17107533
190	0x3d906390	0.0705024
191	0xbe15255c	-0.14565033
192	0x3e309a1a	0.17246285
193	0xbe0782ae	-0.13233444
194	0xbb8f07eb	-0.0043649576
195	0xbb02038a	-0.0019838535
196	0x3dcf4483	0.101204894
197	0x3dbe2382	0.09284116
198	0xbe34c2f6	-0.17652497
199	0x3a95b42f	0.0011421497
200	0x3dc810fa	0.09768863
201	0xbbbb92a8	-0.00572427
202	0xbdde1810	-0.10844433
203	0x3e0a1f8e	0.134886
204	0xbe1a1ee8	-0.15050852
205	0xbda83a0b	-0.08214196
206	0xbe28650c	-0.16444796
207	0xbc84ff41	-0.016234996
208	0x3a8fc93e	0.0010970009
209	0x3d1b0fa1	0.0378567
210	0xbd2abdfb	-0.041685086
211	0xbbac2c8a	-0.005254333
212	0xbe3e5997	-0.18588863
213	0x3e2169d9	0.15763034
214	0xbe11cdba	-0.14238635
215	0x3c8fd430	0.017557234
216	0x3dead53e	0.11466454
217	0xbcb83f8b	-0.022491237
218	0xbe33d5e3	-0.1756206
219	0xbe40c08a	-0.18823448
220	0x3d5277a8	0.051383644
221	0xbd4fcd13	-0.050732683
222	0xbe1d770b	-0.15377443
223	0xbd2c24bf	-0.04202723
224	0x3e2b9c63	0.16758876
225	0xbdb50c42	-0.088402286
226	0x3e1a18f5	0.15048583
227	0xba9962e7	-0.0011702449
228	0x3974f823	0.00023362091
229	0x3e0549c1	0.13016416
230	0x3d6f20ce	0.058380894
231	0x3d23c1cb	0.039979737
232	0x3e0b7128	0.13617384
233	0xbda3364d	-0.079693414
234	0xbdb49704	-0.088178664
235	0xbe156bb6	-0.1459187
236	0xbd9fb2b7	-0.07797759
237	0xbd3e072e	-0.046393566
238	0x3a32ced0	0.00068209786
239	0x3c7374fe	0.014859436
240	0x3d9b7514	0.0759069
241	0xbe271e51	-0.16320159
242	0xbe11706d	-0.14203043
243	0xbd931956	-0.07182567
244	0xbddf914d	-0.10916386
245	0x3df9f989	0.12205798
246	0x3db07eb7	0.08617919
247	0x3dd91528	0.10599738
248	0xbac06439	-0.0014678306
249	0x3dabadd6	0.08382766
250	0x3d55b4c3	0.05217434
251	0x3e2a47df	0.16628979
252	0x3d9f32e7	0.07773381
253	0xbe3d2ba9	-0.18473686
254	0x3d3257a2	0.043540604
255	0x3d5f138c	0.054462

fc1.bias f4 [32]
0	0xbe092656	-0.1339353
1	0x3e2357b3	0.15951423
2	0xbd0ab81e	-0.033866994
3	0xbe3f80c6	-0.18701467
4	0xbc10b761	-0.008832783
5	0xbd81e3bb	-0.06342264
6	0x3d7050ea	0.058670916
7	0x3e34a6e9	0.17641796
8	0x3e37f1e1	0.17963363
9	0x3a868040	0.001026161
10	0x3e037c1d	0.12840314
11	0xbb27e366	-0.0025617718
12	0xbd2fc49c	-0.04291211
13	0xbd4e057f	-0.05029821
14	0xbe0f9d6a	-0.14024892
15	0x3b65fc1e	0.00350929
16	0x3d123a8b	0.035700362
17	0x3dd1455f	0.102183096
18	0x3e083f44	0.13305384
19	0xbe097140	-0.13422108
20	0xbe2dd316	-0.16975054
21	0xba51b4da	-0.0007999666
22	0xbb3826bf	-0.0028099266
23	0x3dffb2ad	0.124852516
24	0xbda0d713	-0.07853522
25	0xbe2f6807	-0.17129527
26	0xbbd2704c	-0.0064220782
27	0x3e161857	0.14657722
28	0x3db33664	0.087506086
29	0x3c71173d	0.014715013
30	0x3b9ede78	0.0048482977
31	0xbe273143	-0.16327386

bn2.weight f4 [32]
0	0x3f7709b4	0.9649918
1	0x3f771773	0.96520156
2	0x3f771cf6	0.96528566
3	0x3f771145	0.96510726
4	0x3f770d22	0.96504414
5	0x3f7713c3	0.9651453
6	0x3f7714d4	0.96516156
7	0x3f7713a4	0.96514344
8	0x3f771d5d	0.9652918
9	0x3f770ba7	0.96502155
10	0x3f770eb6	0.9650682
11	0x3f771d88	0.96529436
12	0x3f771f8f	0.9653253
13	0x3f772122	0.9653493
14	0x3f772458	0.9653983
15	0x3f7711ad	0.96511346
16	0x3f771314	0.96513486
17	0x3f770e89	0.96506554
18	0x3f77119b	0.9651124
19	0x3f771d74	0.96529317
20	0x3f770e5a	0.96506274
21	0x3f771422	0.96515095
22	0x3f771c84	0.96527886
23	0x3f771cfe	0.96528614
24	0x3f771c14	0.9652722
25	0x3f7712b8	0.9651294
26	0x3f770b48	0.9650159
27	0x3f771135	0.9651063
28	0x3f7714a3	0.96515864
29	0x3f7715df	0.9651775
30	0x3f771bd5	0.96526843
31	0x3f770f3c	0.9650762

bn2.bias f4 [32]
0	0x3d0e3fc2	0.034728773
1	0x3d0bff47	0.034179
2	0xbd0d30c9	-0.034470353
3	0x3d0b5533	0.0340168
4	0xbd0468d9	-0.032326553
5	0xbd0b8c7b	-0.03406952
6	0x3d0c3b81	0.034236435
7	0xbd09c776	-0.033637486
8	0xbd0da3a9	-0.034579907
9	0xbd10a54f	-0.0353139
10	0xbd034d69	-0.032056246
11	0xbd0dab75	-0.034587342
12	0xbd0dd64a	-0.03462819
13	0x3d0dbfdd	0.034606803
14	0xbd0d9a85	-0.03457119
15	0x3d0d554d	0.034505177
16	0xbd0b021d	-0.033937562
17	0xbd0d38f8	-0.034478158
18	0xbd0c0d15	-0.034192163
19	0x3d0d6bd4	0.03452666
20	0xbc78e5f9	-0.0151915485
21	0xbd0b0e35	-0.033949096
22	0xbd0d2724	-0.034461156
23	0x3d0c7fa9	0.034301434
24	0xbd0c9c3c	-0.034328684
25	0xbd0b06a4	-0.03394188
26	0xbd13152c	-0.035908863
27	0xbd0baca8	-0.034100205
28	0xbd0a0167	-0.033692744
29	0xbd0cc926	-0.034371518
30	0xbd0d81b3	-0.03454752
31	0x3d11d6f2	0.03560538

bn2.running_mean f4 [32]
0	0x3f41aa63	0.75650615
1	0x3f42e1ef	0.76126
2	0xbf46c383	-0.7764208
3	0xbf472e08	-0.77804613
4	0x3f3b7037	0.732181
5	0xbf473ff6	-0.7783197
6	0xbf4564de	-0.77107036
7	0xbf432a42	-0.76236355
8	0x3f414b83	0.75505847
9	0x3f41933a	0.75615275
10	0x3f447c9f	0.76752657
11	0xbf452d0f	-0.7702188
12	0xbde168a7	-0.11006289
13	0x3f43b41d	0.76446706
14	0x3e11aecf	0.1422684
15	0x3f3d91cd	0.740506
16	0x3f44eb46	0.769215
17	0xbf47ff0c	-0.78123546
18	0x3f444008	0.76660204
19	0x3f44eecb	0.7692687
20	0xbf252235	-0.6450532
21	0xbf461fc1	-0.773922
22	0x3f3f4402	0.74713147
23	0xbf43fa72	-0.76554024
24	0x3f3ed26f	0.74539846
25	0xbf42e7b1	-0.76134783
26	0xbf364c12	-0.71209824
27	0xbf2f73d4	-0.68536115
28	0x3f478166	0.7793182
29	0xbf42b34a	-0.76054823
30	0x3f410134	0.7539246
31	0x3e13176a	0.143644

bn2.running_var f4 [32]
0	0x3f7b58b8	0.9818225
1	0x3f7c09cf	0.98452467
2	0x3f7f0ad5	0.99625903
3	0x3f7b2eda	0.98118365
4	0x3f6de663	0.9292967
5	0x3f800976	1.0002887
6	0x3f801691	1.0006887
7	0x3f758ae3	0.9591505
8	0x3f7fdc5f	0.99945635
9	0x3f7fc329	0.99907166
10	0x3f7fc594	0.99910855
11	0x3f7f9176	0.9983133
12	0x3ee73cdc	0.4516362
13	0x3f7f6e9a	0.9977814
14	0x3ef1f7fd	0.47259513
15	0x3f75515d	0.95827276
16	0x3f7e6f65	0.99388725
17	0x3f7fb21d	0.99881154
18	0x3f7c9bd8	0.986753
19	0x3f7fdeb0	0.9994917
20	0x3f4b5922	0.7943288
21	0x3f800a46	1.0003135
22	0x3f7aaf6c	0.9792392
23	0x3f7ffd2c	0.99995685
24	0x3f74a093	0.95557517
25	0x3f7ddb28	0.9916253
26	0x3f6b57db	0.9193093
27	0x3f5bd0a5	0.8586524
28	0x3f80050f	1.0001544
29	0x3f782f80	0.9694748
30	0x3f786dc2	0.9704248
31	0x3ef3cc8d	0.47616997

fc2.weight f4 [1, 32]
0	0xbd2dac8b	-0.042400878
1	0xbd57f7ce	-0.05272656
2	0x3db80f2c	0.08987269
3	0xbd30f0d9	-0.04319844
4	0x3cb330e8	0.021873906
5	0x3d0edb84	0.034877315
6	0xbd649d6f	-0.055814203
7	0x3cee7832	0.029110048
8	0x3df33489	0.11875255
9	0x3cdf41e1	0.027253093
10	0x3c853cda	0.016264368
11	0x3df57cf6	0.11986725
12	0x3e098e50	0.13433194
13	0xbe01708c	-0.1264059
14	0x3de809c1	0.113299854
15	0xbdc85734	-0.09782258
16	0x3d159762	0.036521323
17	0x3d00bb71	0.031428758
18	0x3d5f98bd	0.054589022
19	0xbdcfe1fc	-0.10150525
20	0x3c4a4ead	0.012347859
21	0x3d105c19	0.03524408
22	0x3db2894b	0.08717593
23	0xbd858c84	-0.06520942
24	0x3d621aec	0.055201456
25	0x3ccaa4d2	0.024736796
26	0x3d00cf43	0.03144766
27	0x3cfce545	0.030871043
28	0x3cce8d07	0.025213731
29	0x3d8df486	0.06931405
30	0x3ddd47aa	0.108046845
31	0xbd136335	-0.035983283
