autobin/saved_models/binary_classifier_checkpoint_overall.pt (torch, 6454 bytes, 11 tensors)

bn_input.weight f4 [16]
0.89253926 1.0635767 0.8779748 0.7916936 0.9621168 1.0520511 1.0358653 1.0142162
0.8059998 1.0417264 0.9994275 0.9855957 0.9712317 0.8986453 0.8361826 0.8377955
00000000: 747d 643f 4823 883f f5c2 603f 6fac 4a3f
00000010: 494d 763f 9ca9 863f 3c97 843f d6d1 813f
00000020: 0156 4e3f 4a57 853f 7bda 7f3f 0050 7c3f
00000030: a4a2 783f 9e0d 663f 1010 563f c479 563f

bn_input.bias f4 [16]
0.25391668 0.042375103 -0.23319963 0.20611279 -0.2367256 0.075248286 -0.2507159 -0.24604335
0.22512594 0.13469283 0.18544821 -0.06662138 -0.17873894 0.10570831 0.2801719 -0.21794024
00000000: 5e01 823e 8491 2d3d e2cb 6ebe 3b0f 533e
00000010: 3268 72be c61b 9a3d d65d 80be caf2 7bbe
00000020: 6a87 663e ebec 093e 23e6 3d3e ca70 88bd
00000030: 5707 37be 997d d83d b172 8f3e ba2b 5fbe

bn_input.running_mean f4 [16]
0.03842947 0.0097451 -0.006604963 -8.642824e-05 0.0149298245 0.05493751 0.02268297 -0.013703008
0.05668036 0.010365693 -0.06817022 -0.00046443273 -0.012947084 0.106181435 0.08274371 0.02041623
00000000: 3868 1d3d e9a9 1f3c 726e d8bb cf40 b5b8
00000010: 399c 743c 2806 613d a3d1 b93c 9582 60bc
00000020: aa29 683d ded4 293c d49c 8bbd 1b7f f3b9
00000030: 0220 54bc a775 d93d 8975 a93d f03f a73c

bn_input.running_var f4 [16]
1.0940144 1.4641645 1.9007275 1.754036 1.9066521 0.9730804 2.1327944 2.1139612
1.3883536 1.2699523 1.052851 1.6168151 1.7235621 1.2230588 0.9256697 0.70246357
00000000: aa08 8c3f be69 bb3f 0a4b f33f 4084 e03f
00000010: 2d0d f43f cc1b 793f b47f 0840 244b 0740
00000020: 92b5 b13f cc8d a23f d2c3 863f ccf3 ce3f
00000030: af9d dc3f 318d 9c3f b1f8 6c3f a7d4 333f

fc1.weight f4 [8, 20]
-0.01936215 -0.09789014 -0.1538858 -0.044419073 0.12013891 -0.028707631 0.07121917 0.025430504
-0.008513515 -0.11381247 0.15509938 -0.07479585 -0.12598033 0.0011000878 -0.067853 0.022701373
0.009245079 -0.11253615 -0.2449401 -0.09446221 0.19511257 0.040679272 0.06369686 -0.071300335
-0.09268973 0.13122268 -0.23868786 -0.20948206 0.05725528 0.10900741 0.20818675 -0.09591209
-0.12107321 0.072825685 0.15779251 -0.114187144 -0.01924256 -0.34511027 0.2246942 0.097521976
0.1483221 0.054984305 -0.10787138 0.03825842 -0.061767492 0.1122998 -0.025392786 -0.09164419
0.0009304576 0.055912737 0.15672624 -0.031414203 -0.06929625 -0.034524225 0.052521173 -0.037116442
-0.016271934 0.26724827 0.40225738 -0.0037533094 0.007818617 0.01082052 0.0034454712 0.0021228283
-0.003136667 0.002991494 0.006280592 -0.0008247676 -0.0030852586 -0.005730864 0.005824769 0.0009847963
-0.0018895783 0.009636075 0.0014888139 -0.013571531 0.16342783 0.00069896097 0.0061689937 0.006455521
-0.1780866 -0.23317741 -0.018508991 0.084956266 0.16821076 -0.4063817 -0.2731832 -0.23716721
-0.28242403 0.3838885 0.115129344 -0.17723846 0.012899867 0.24764322 -0.048377637 -0.1073136
0.03696174 -0.022915257 -0.19323882 -0.39442077 0.007870135 0.012887414 0.014549825 0.006235203
-0.0078725405 -0.008909919 -0.004160136 0.001760005 0.0044027613 0.005909492 -0.0035824596 -0.0006045197
0.0091900965 0.004719578 -0.001042651 0.01220661 -0.16091655 0.0024266762 0.0036251543 -0.0084076915
0.15659384 0.296634 0.11295669 0.13879704 0.086442895 0.0815314 0.053700898 0.20812705
-0.099703535 0.22929765 -0.31534165 0.24208283 0.26416683 -0.14178385 0.0017598926 0.006504634
0.0071207164 -0.23933777 -0.10307893 0.19472134 -0.007622582 -0.0025699332 -0.0049439943 0.0122616505
0.0027646655 -0.006185245 -0.0037942226 0.0017602288 0.004871298 0.0062590875 0.00025118815 0.0058427025
0.003146187 -0.0044073854 0.010357593 0.0031069203 -0.16421403 -0.0010599974 -0.007431992 -0.0075530647
00000000: 5f9d 9ebc a07a c8bd 3d94 1dbe c6f0 35bd
00000010: 640b f63d 442c ebbc 5bdb 913d a253 d03c
00000020: 457c 0bbc 8316 e9bd 5fd2 1e3e 912e 99bd
00000030: fd00 01be d230 903a 83f6 8abd 3bf8 b93c
00000040: ac78 173c 5a79 e6bd 94d1 7abe 6775 c1bd
00000050: 97cb 473e 4f9f 263d 8073 823d e905 92bd
00000060: 1dd4 bdbd 3d5f 063e 976a 74be 7782 56be
00000070: 8384 6a3d 473f df3d e82e 553e 8f6d c4bd
00000080: 3bf5 f7bd a225 953d 5c94 213e f3da e9bd
00000090: 93a2 9dbc 4bb2 b0be 3d16 663e 9ab9 c73d
000000a0: c0e1 173e 3937 613d aceb dcbd dcb4 1c3d
000000b0: e9ff 7cbd 70fd e53d 8804 d0bc f3af bbbd
000000c0: f4e9 733a c104 653d d87c 203e 2eac 00bd
000000d0: 31eb 8dbd 4669 0dbd 7120 573d 6907 18bd
000000e0: b84c 85bc c4d4 883e aef4 cd3e 15fa 75bb
000000f0: a819 003c 8d48 313c 6acd 613b 261f 0b3b
00000100: 8a90 4dbb f10c 443b 6dcd cd3b 3735 58ba
00000110: 0d32 4abb f9c9 bbbb b4dd be3b 4814 813a
00000120: baab f7ba a1e0 1d3c 4e24 c33a 205b 5ebc
00000130: a059 273e 7a3a 373a 4525 ca3b d688 d33b
00000140: 555c 36be 0fc6 6ebe 2ba0 97bc 8dfd ad3d
00000150: 713f 2c3e 4311 d0be abde 8bbe f6db 72be
00000160: e299 90be 098d c43e efc8 eb3d 007e 35be
00000170: f759 533c 2f96 7d3e a127 46bd 3cc7 dbbd
00000180: 3265 173d c7b8 bbbc 66e0 45be 85f1 c9be
00000190: bdf1 003c bb25 533c 6462 6e3c ac50 cc3b
000001a0: d4fb 00bc e9fa 11bc c051 88bb f8af e63a
000001b0: 0a45 903b 69a4 c13b b3c7 6abb a178 1eba
000001c0: 0f92 163c b1a6 9a3b 90a9 88ba 3cfe 473c
000001d0: 4fc7 24be df08 1f3b ff93 6d3b 6ac0 09bc
000001e0: 235a 203e 69e0 973e d655 e73d d020 0e3e
000001f0: f908 b13d eff9 a63d 79f5 5b3d 421f 553e
00000200: 5e31 ccbd 01cd 6a3e 7674 a1be 90e4 773e
00000210: e040 873e c92f 11be 32ac e63a d324 d53b
00000220: e654 e93b f614 75be 0c1b d3bd 0865 473e
00000230: dac6 f9bb 536c 28bb 3b01 a2bb 17e5 483c
00000240: 642f 353b 98ad cabb 7ea8 78bb 7ab7 e63a
00000250: 699f 9f3b 0819 cd3b e7b1 8339 2474 bf3b
00000260: 4230 4e3b d46b 90bb e5b2 293c 799d 4b3b
00000270: b927 28be 9cef 8aba 1188 f3bb b37f f7bb

fc1.bias f4 [8]
-0.2613495 0.06737842 0.23912892 0.0059938813 -0.20354165 -0.006888365 -0.10952012 -0.0072386446
00000000: 9acf 85be b2fd 893d 36de 743e 5268 c43b
00000010: 396d 50be cbb7 e1bb 164c e0bd 2732 edbb

bn2.weight f4 [8]
0.8239822 0.6377028 0.8768245 0.6888051 0.5917236 0.6126096 0.81119686 0.61331576
00000000: 7ff0 523f 7e40 233f 9277 603f 8855 303f
00000010: 337b 173f fcd3 1c3f 99aa 4f3f 4302 1d3f

bn2.bias f4 [8]
-0.28004196 -0.41592208 0.36896646 -0.29399425 0.42423418 0.3495145 -0.30857486 0.35582218
00000000: a961 8fbe bdf3 d4be 2ce9 bc3e 6a86 96be
00000010: 3935 d93e 91f3 b23e 86fd 9dbe 532e b63e

bn2.running_mean f4 [8]
0.1291434 -0.3743232 0.043181818 1.0008061 0.7748668 -0.9989108 0.12512287 -1.0042044
00000000: 2b3e 043e 4aa7 bfbe 6bdf 303d 6a1a 803f
00000010: ac5d 463f 9eb8 7fbf 3620 003e c589 80bf

bn2.running_var f4 [8]
0.12392478 0.21200714 0.12579149 0.11037896 0.1934549 0.11209965 0.29067454 0.107340716
00000000: 46cc fd3d 6618 593e 7ccf 003e 5d0e e23d
00000010: 0b19 463e 8094 e53d 4bd3 943e 73d5 db3d

fc2.weight f4 [1, 8]
0.38557994 0.3855613 -0.5129311 0.29198056 -0.3934959 -0.33156532 0.43790787 -0.32044837
00000000: bc6a c53e 4a68 c53e 744f 03bf 7a7e 953e
00000010: 4b78 c9be eec2 a9be 7635 e03e cf11 a4be
