autobin/saved_models/binary_classifier_checkpoint_tune.pt (torch, 9088 bytes, 11 tensors)

bn_input.weight f4 [16]
000000 f8 4d 6f 3f 5d 1e 7c 3f 1a 99 83 3f ac 98 6f 3f
       0.93478346 0.9848383 1.0281098 0.93592334
000010 6b ff 8b 3f f4 4d 6a 3f 5a ba 7a 3f fc be 8b 3f
       1.0937322 0.915252 0.979406 1.0917659
000020 5a 81 73 3f 2f 95 67 3f 02 46 68 3f fd bb 62 3f
       0.9511925 0.9046201 0.90731823 0.885681
000030 86 0b 81 3f 06 7b 67 3f 55 30 72 3f 16 92 71 3f
       1.0081642 0.90422094 0.94605 0.94363534

bn_input.bias f4 [16]
000000 d8 29 9b 3d 5c 31 a9 3a 71 85 b3 bd 25 75 81 3d
       0.075763404 0.0012908387 -0.08765686 0.06321172
000010 c0 79 a7 bd e8 66 f3 bc 47 64 8b bd 86 38 8e bc
       -0.08177519 -0.029712155 -0.06806236 -0.017360937
000020 50 02 95 3d e3 2e c3 39 04 0b bb bc 19 03 f1 3c
       0.07275832 0.00037228232 -0.022832401 0.029420422
000030 83 b0 c5 bc e9 cf c0 3b d6 b2 a6 3d 27 d3 f9 bc
       -0.024132019 0.00588416 0.08139579 -0.030496193

bn_input.running_mean f4 [16]
000000 74 7a 6b 3d 83 90 82 3c 3f c0 fd 3b d6 68 17 3b
       0.057489827 0.01593805 0.007743865 0.0023103259
000010 96 1e 04 3c 7f 18 94 3d 8e 9a 08 3d ab 6f d2 bc
       0.008063933 0.07231235 0.03335052 -0.025688013
000020 2c 78 82 3d 1a a7 53 bc 65 d1 c9 bd 43 e3 1a bd
       0.06370577 -0.012918258 -0.09854392 -0.03781439
000030 f8 e3 60 3c fe 94 e5 3d e7 7e a2 3d 4c 17 f2 3c
       0.013726227 0.11210059 0.07934361 0.029552124

bn_input.running_var f4 [16]
000000 49 f9 90 3f 8e 60 c4 3f e0 c4 ee 3f b4 23 de 3f
       1.1326076 1.5341966 1.8653831 1.7354646
000010 fc 7a ff 3f c2 32 7e 3f ea 8b 0f 40 96 77 0c 40
       1.9959407 0.992962 2.2429147 2.194799
000020 0f 99 aa 3f 20 38 a7 3f 02 a9 87 3f e6 9b d4 3f
       1.332796 1.3064003 1.0598452 1.6610076
000030 e4 d2 d4 3f ec b2 a3 3f 52 1b 66 3f 84 a8 37 3f
       1.6626859 1.2788978 0.8988544 0.7174151

fc1.weight f4 [32, 20]
000000 8a 59 c7 3d 70 54 a2 bc 4c 56 43 3c c8 7a ba 3c
       0.09733875 -0.019815654 0.01192243 0.022763625
000010 69 6f f9 bc 4b 7d 92 3d 77 54 6f bc ec 86 b1 bc
       -0.030448632 0.07152804 -0.01460754 -0.021670781
000020 54 90 b8 bd 66 72 ab 3d c4 27 5c bd 65 49 fb bd
       -0.090119034 0.08371429 -0.05374886 -0.12269858
000030 25 c7 6d 3a 19 3b 9d bd ad c1 55 3a 7f 9d 84 bd
       0.00090705074 -0.076772876 0.0008154165 -0.064753525
000040 ad 32 e6 3d fa 4a b4 bd e0 b0 42 3d 6b 4e 6e 37
       0.112401344 -0.08803363 0.047531962 1.4204164e-05
000050 f8 4b 43 3c 81 0b 89 bd 56 8f 04 bd 29 9d 87 bc
       0.011919968 -0.06691647 -0.03236326 -0.016554432
000060 65 63 52 3b 15 7e 0e 3c ec f6 ac 3d b7 61 08 3c
       0.00321027 0.0086970525 0.08445534 0.008324078
000070 06 a8 91 3c ff 27 be bb 5c 4b b5 bd 66 a4 c1 3c
       0.017780315 -0.0058031077 -0.08852264 0.023637962
000080 44 e7 91 bd 9b 70 8f bc ad e7 97 bd df 7b 24 3d
       -0.071241885 -0.01750975 -0.074172355 0.040157195
000090 f0 7c b8 bd 80 bb ee 3b 81 9e 7d bb 27 14 5a 3c
       -0.09008205 0.0072855353 -0.0038699212 0.013310469
0000a0 cb 81 91 b8 31 f4 fb 3b 24 01 19 3b dd 4e 83 bd
       -6.9383146e-05 0.007689022 0.0023346627 -0.06411526
0000b0 a4 7e fe 3c f5 e3 58 bd f0 b0 d7 bc 5d f1 0a bc
       0.031066246 -0.05295177 -0.026329488 -0.008480397
0000c0 42 8d 4c 3c ff 1a 51 3d 1a cb 0d 3d 87 54 76 3d
       0.01248485 0.051051136 0.03461752 0.060139205
0000d0 ef 05 45 3d 67 6b 1c 3c 48 fb 3c 3d 58 d1 84 3b
       0.04810136 0.009547091 0.046138078 0.004053276
0000e0 8a 42 c8 bd 2a b2 1b bc ee b5 c8 3b 7d 11 8b 38
       -0.09778316 -0.009502927 0.0061252033 6.631294e-05
0000f0 8b 14 5d bd 5f 44 ba 3d 1f 99 86 bb 0c cf 70 bd
       -0.05397467 0.09095072 -0.004107609 -0.058791205
000100 84 7e 75 3d 64 bc df bd 5b a9 5e 3e 13 42 3e 3e
       0.059935108 -0.109246045 0.21744291 0.18579893
000110 1f 3e 50 bd 02 2c 96 bd 02 1a d2 bd 29 3c b0 3c
       -0.050840493 -0.073326126 -0.10258867 0.021513062
000120 73 f9 e7 3d 2b 6f 1e bd 06 11 ac bc d3 6c cf bc
       0.113268755 -0.038680237 -0.021004211 -0.025320446
000130 ba b3 23 bd fd 8a 96 bc c8 fd e3 3d da ac 2f 3e
       -0.039966322 -0.018376822 0.11132389 0.17155781
000140 a6 b9 b5 bc 32 5a b0 3c aa a5 87 3d 0a 5f 95 bd
       -0.02218325 0.021527383 0.06623395 -0.07293518
000150 a9 7c 88 3d d3 2f fe bc 5d f3 93 3b 07 17 45 bc
       0.06664402 -0.031028664 0.004515095 -0.012029416
000160 d9 75 05 3d 1e 65 61 3c 7a 3b 4e 3d 0c 00 b2 bc
       0.03258309 0.013757018 0.05034969 -0.021728538
000170 fa 8f 30 bd dc 73 18 3a be 44 1c ba f8 0e 49 3d
       -0.043106057 0.0005815604 -0.0005961171 0.04908654
000180 6f 22 6f bd 5f 57 50 3c a6 7c 23 3c 60 be b4 3c
       -0.058382448 0.012716143 0.009978449 0.022063434
000190 b5 83 22 3c 9f d0 32 bd bf f2 51 bc bb 4e 47 bc
       0.009919097 -0.043655988 -0.012814223 -0.012164767
0001a0 27 b4 c1 3c 64 c7 1d 3d 5f 53 35 bc bb 34 9d 3d
       0.023645474 0.03852023 -0.0110672405 0.07676073
0001b0 8d 08 a9 3c c6 7b 42 3d e8 dd 9a bc 89 07 f3 bb
       0.02063396 0.04748132 -0.018904641 -0.0074166697
0001c0 8f 10 6b 3b bb b3 aa bd 50 92 ed bc f9 85 22 3b
       0.0035868024 -0.08335062 -0.029000431 0.0024799092
0001d0 9b 3b 8b 3d 57 38 10 3d d4 50 1c 3b 32 d5 0f 3d
       0.06798478 0.03520998 0.0023851888 0.03511543
0001e0 3f 4f 8e bd e7 da 7f 3d 70 1c 8d bd cf 6d 3c 3d
       -0.06948709 0.06246462 -0.0689019 0.04600316
0001f0 90 fb 1e bc b9 27 aa bd 27 6f 9f bc 4f f3 49 3d
       -0.009703532 -0.08308358 -0.019462181 0.049304303
000200 a0 40 53 3d ea 7b 75 3d 9a 7a 71 bc bb 19 26 bd
       0.051575303 0.059932627 -0.014738703 -0.040551882
000210 56 8b 84 3b e1 21 8b 3c ef 5c 9a ba bf 96 9e bb
       0.0040449305 0.016983928 -0.0011776964 -0.0048397477
000220 ff 1d 46 bd 8e 1e 65 3d 16 4f a8 3c 99 f7 48 3a
       -0.04836845 0.055937342 0.020545524 0.00076662895
000230 80 b0 09 3e 98 03 ac 3d 6f a3 2f be ff 8d e8 3d
       0.13446236 0.08399123 -0.17152189 0.113552086
000240 1f d3 86 be 80 dc fb bd c4 17 8a bd 09 e5 41 be
       -0.26332948 -0.122979164 -0.06742814 -0.18935026
000250 3a 94 39 3e 7f 40 96 3d 7c 80 a4 bd 50 bb 04 3c
       0.1812295 0.073365204 -0.08032319 0.008101299
000260 a1 58 e2 3b 98 ad dd bc f8 ab 3c 3e 8d 42 99 bd
       0.006907538 -0.027060315 0.18424976 -0.07483397
000270 71 d6 09 bc a2 95 b0 3e c7 ad 7e 3e 1c 94 e0 bd
       -0.008412943 0.3448916 0.24870978 -0.109657496
000280 85 29 5b 3c 1c 2b 9f 3c 61 1e b6 3d d1 7c b3 3c
       0.013376598 0.019429736 0.08892513 0.021910103
000290 50 53 6f bb 06 a4 77 bc 09 7a 89 b9 9a f0 42 3d
       -0.0036518164 -0.01511479 -0.000262216 0.047592737
0002a0 59 23 01 3d 98 63 87 bc 68 2e 8c 3c 45 63 2b bd
       0.03152785 -0.016526982 0.017111972 -0.041842718
0002b0 e7 a9 55 3b 83 f7 ed 3c 74 11 b0 3c 4e be e1 3b
       0.003260249 0.029048687 0.021492697 0.006889141
0002c0 da 4d ab 3d 2d 9e 82 bd 3a ec 92 3b 16 97 fb bc
       0.083644584 -0.06377826 0.004483727 -0.030711692
0002d0 5f 57 66 bd c0 b1 71 be b7 dd 08 bc 37 b0 4a 3d
       -0.056235667 -0.23602962 -0.008353642 0.049484458
0002e0 4a 58 99 be 87 96 ad bc 3c e8 84 be f1 a4 64 be
       -0.29950172 -0.021189941 -0.2595843 -0.22328545
0002f0 7e 1d e7 bd fd e6 dc bd 7a aa e7 ba d3 12 a4 3d
       -0.11284922 -0.10786245 -0.0017674707 0.08011403
000300 eb 70 62 be dc 17 4e 3d e6 b9 3a 3e fe 16 3b be
       -0.22113387 0.050315723 0.18234977 -0.1827049
000310 dc 98 b6 3b 26 0d ca 3d eb ca 4f 3e d4 f9 0c be
       0.0055724215 0.09865789 0.20292251 -0.13767177
000320 c2 9d 70 bd 28 b2 88 3c a2 64 d5 38 42 f8 09 3c
       -0.0587442 0.016686514 0.00010175376 0.008421006
000330 6d af 84 bc b5 7f 5f 3c 26 d1 5a 3c d2 2e b5 3b
       -0.01619693 0.013641288 0.013355529 0.005529263
000340 ae d4 a9 3c 8e 90 90 3c 41 3a b1 3c 5f 80 0c 3d
       0.020731296 0.017647054 0.021634223 0.03430211
000350 77 b9 9c bb 3c 4c 81 3d b5 9e cc 3b d3 a4 39 b9
       -0.0047828513 0.06313369 0.0062445053 -0.00017704377
000360 eb 61 ae 3d f7 d5 2d 3d ef 44 86 bb f6 44 0b bc
       0.0851477 0.04244038 -0.004097573 -0.008500328
000370 00 7a 7c 3b 24 be 3f 3c fa 3b 84 3d 63 4b 30 3d
       0.0038524866 0.011703048 0.06456752 0.043040644
000380 74 a3 55 bc bd f3 eb 3c 60 2e e8 bb a2 57 7d 3d
       -0.013039459 0.028802747 -0.0070856065 0.06185115
000390 eb 03 64 3c e3 76 30 bc 19 57 99 3d 2d 9c 80 bb
       0.01391695 -0.010770532 0.07487316 -0.0039248676
0003a0 41 c3 43 3d a1 29 69 bd bb e3 01 bd 99 a8 43 bc
       0.04779363 -0.056924466 -0.03171132 -0.011942052
0003b0 fa 44 b9 3d 28 92 4a 3d 09 22 51 3c b5 af 2e bd
       0.09046359 0.04945579 0.012764462 -0.042648036
0003c0 60 22 1f 3c 6d 93 cc bc 96 72 a3 bd 85 03 34 bc
       0.0097127855 -0.024972642 -0.0798084 -0.010987167
0003d0 43 06 11 3c f5 55 08 3c 3a 2a 99 bd 8a 60 50 3d
       0.008851591 0.008321275 -0.07478757 0.050873317
0003e0 0d 93 47 bc 97 ba 4e 3d 18 fe b9 bc 24 98 eb 3c
       -0.012181056 0.050470915 -0.02270417 0.02875907
0003f0 e3 bc bd bb 38 c2 61 3c 26 72 8d bb 80 19 77 3d
       -0.0057903393 0.0137792155 -0.004316586 0.060327053

fc1.bias f4 [32]
000000 2b 23 bd bd b6 eb c2 3a 3f c2 3c ba 64 af 24 3e
       -0.092352234 0.0014871273 -0.0007200576 0.16082531
000010 4d dc b5 3c 9d 48 37 bc f1 c1 74 3c b0 08 b4 bd
       0.022199774 -0.011186746 0.014938817 -0.087907195
000020 04 e1 b2 bc 7f c7 05 be 82 40 01 3d 9d da 14 3d
       -0.021835811 -0.13064383 0.03155566 0.0363413
000030 ae fd 0c bb e3 74 5d 3b 80 cd 28 3a 0d f3 11 3e
       -0.002151351 0.0033791594 0.00064393133 0.14252873
000040 f6 b1 f8 3c 99 f6 6b 3d 02 39 51 bb ac d1 51 3d
       0.030358296 0.05760822 -0.0031924848 0.05122535
000050 7e 9f 86 bd d7 19 b3 3a 19 66 86 3a b5 e1 a0 3d
       -0.065733895 0.0013664317 0.0010253816 0.0785555
000060 29 8d 12 ba 36 aa 3b bd bd db cf bb ca 73 7a 3c
       -0.00055904925 -0.045816623 -0.0063433335 0.015286395
000070 3a 44 b7 bd 96 60 43 3e 25 e1 82 3d fa b6 e7 bd
       -0.0894856 0.19079813 0.06390599 -0.11314197

bn2.weight f4 [32]
000000 2e 15 60 3f 5b 0e 62 3f 82 33 61 3f 74 79 62 3f
       0.8753232 0.88303155 0.8796922 0.8846657
000010 24 ac 5f 3f 7c ef 61 3f c8 fc 59 3f b4 18 66 3f
       0.8737204 0.8825605 0.8515134 0.89881444
000020 35 87 5b 3f 27 f8 66 3f 15 64 62 3f de 03 64 3f
       0.85753185 0.902224 0.88433963 0.890684
000030 92 65 61 3f 3c 4b 60 3f 65 bf 62 3f 95 d6 64 3f
       0.8804561 0.876148 0.88573295 0.89389926
000040 71 e4 62 3f 5d 71 62 3f 0d 58 5c 3f e0 64 60 3f
       0.88629824 0.8845423 0.86071855 0.87653923
000050 a7 8a 67 3f a8 00 63 3f d0 48 63 3f 85 35 63 3f
       0.9044594 0.88672876 0.8878298 0.8875354
000060 aa 30 5a 3f 7c 3a 66 3f fb 20 60 3f 06 ff 5c 3f
       0.85230505 0.8993299 0.87550324 0.86326635
000070 24 2f 63 3f a9 db 75 3f aa a7 62 3f 6d 02 65 3f
       0.88743806 0.960383 0.88537085 0.89456826

bn2.bias f4 [32]
000000 23 08 20 3e 91 d9 0d be 4a a3 2c 3e 0d 6e 07 be
       0.15628104 -0.13852526 0.16859165 -0.13225575
000010 e9 6d 36 3e ec 53 14 be b1 bd 29 3e 16 c8 1b 3e
       0.17815365 -0.14485139 0.16576268 0.15213045
000020 02 42 39 3e 49 de 0f 3e 81 3b 0a 3e 43 c1 23 be
       0.18091586 0.14049639 0.13499261 -0.15991692
000030 52 93 0d be a4 85 17 be 4f 49 0d be 88 be 0a 3e
       -0.1382573 -0.14797074 -0.13797496 0.13549244
000040 39 39 07 be 33 b9 1c 3e f3 03 42 be 1e 88 0b 3e
       -0.13205422 0.15305023 -0.18946819 0.13626143
000050 9a 88 0e 3e 99 49 0f 3e 39 7b 1b be 73 f2 17 3e
       0.13919297 0.13992919 -0.15183724 0.14838581
000060 30 e2 3c be 80 d2 1a be 16 bd a3 bd 16 f9 29 be
       -0.18445659 -0.15119362 -0.0799505 -0.16598925
000070 46 56 14 3e 4a 84 2b 3e f0 ef 24 be cc 36 14 3e
       0.14486036 0.16749683 -0.16107154 0.14474028

bn2.running_mean f4 [32]
000000 e7 ea 7a 3f ed ea 7f bf e2 72 7e bf 36 85 79 bf
       0.9801468 -0.99967843 -0.9939405 -0.9746889
000010 4e ed 80 bf 7b 0d 7d 3f 8d 05 7e bf e1 b9 8e be
       -1.007242 0.98848695 -0.9922722 -0.2787619
000020 2d 8b 7f 3f 2a 11 93 3e 8d 43 81 3f 2e f2 7d 3f
       0.9982174 0.28724033 1.009874 0.9919766
000030 07 73 7e bf e8 2f 81 bf 6b 6a 7d bf 3d 0d 99 be
       -0.9939427 -1.0092745 -0.98990506 -0.29892913
000040 85 5e 7d bf d9 a6 7f 3f b7 e3 7b bf 57 44 7f 3f
       -0.9897235 0.99863964 -0.9839434 0.99713653
000050 5b b6 fe be 48 99 7d bf e7 43 7b 3f 73 d7 7f bf
       -0.497485 -0.99062014 0.98150486 -0.99938124
000060 92 ba 7d 3f de 7f 54 3d e2 9c 80 bf ea 98 7c bf
       0.9911281 0.051879756 -1.0047877 -0.9867083
000070 23 b4 32 3f 20 18 5b 3e 58 22 7e bf a0 b4 c9 3d
       0.69806117 0.21395922 -0.99271154 0.098489046

bn2.running_var f4 [32]
000000 10 ca 7f 3f 1b cb 7f 3f d7 0e 80 3f 9c 5b 77 3f
       0.999177 0.9991929 1.0004529 0.9662416
000010 40 10 7e 3f 8e 39 7f 3f 5f 91 7d 3f d4 25 e2 3e
       0.99243546 0.99697196 0.99049944 0.44169486
000020 c0 90 7f 3f 98 80 08 3f 7e dc 7f 3f c9 9d 7f 3f
       0.99830246 0.5332122 0.9994582 0.99850136
000030 50 c5 7f 3f b9 64 7f 3f 7a e8 7f 3f 94 fc 04 3f
       0.9991045 0.99763066 0.99964106 0.51947904
000040 20 98 75 3f c5 e1 7f 3f 54 b9 7f 3f 0b fc 7f 3f
       0.9593525 0.9995387 0.99892163 0.9999396
000050 e9 c1 00 3f d2 ec 7f 3f 3c 06 80 3f 7e b3 7f 3f
       0.50295883 0.99970734 1.0001903 0.9988326
000060 51 b1 7f 3f 99 ff bc 3e 1d d2 7e 3f 01 fd 7f 3f
       0.9987994 0.36913756 0.9953936 0.9999543
000070 7a d3 33 3f 01 f9 e5 3e 8a 22 7f 3f 8d 18 d8 3e
       0.7024456 0.44916537 0.9966208 0.4220623

fc2.weight f4 [1, 32]
000000 49 2a fa bd 32 19 d4 3d c5 cd fb bd 32 c6 ed 3d
       -0.122150965 0.10356368 -0.12295107 0.116100684
000010 21 f1 f9 bd 89 97 c4 3d e4 c9 b7 bd df f6 25 be
       -0.12204195 0.095992155 -0.089740545 -0.16207455
000020 7c 62 de bd d9 5b 17 be 69 98 de bd f3 71 d7 3d
       -0.10858628 -0.14781131 -0.10868914 0.10519781
000030 1d 7e df 3d c0 50 df 3d f3 f1 df 3d 35 e8 09 be
       0.10912726 0.10904074 0.1093482 -0.13467486
000040 21 81 bc 3d 5d 12 c2 bd cb 42 de 3d 60 35 e7 bd
       0.09204317 -0.09476159 0.108525835 -0.11289477
000050 9f 3d eb bd d9 94 df bd 6b b3 e9 3d 37 51 06 be
       -0.11486363 -0.10917062 0.114111744 -0.13116919
000060 13 e5 da 3d 33 b6 21 3e 4f ae 08 3d db 14 ee 3d
       0.10688224 0.1579216 0.03336936 0.116250716
000070 fd 71 df bd c9 bf 22 be bb 06 d2 3d 52 9b 07 be
       -0.109104134 -0.15893473 0.1025519 -0.13242844
